…
I1111 19:22:04.175760 19184 solver.cpp:81] Creating training net from train_net file: dvia_train.prototxt
I1111 19:22:04.176009 19184 net.cpp:58] Initializing net from parameters: 
state {
  phase: TRAIN
  level: 0
  stage: ""
}
layer {
  name: "data"
  type: "Data"
  top: "data"
  top: "label"
  transform_param {
    scale: 0.00390625
    mirror: true
    mean_file: "/home/maheriya/Projects/IMAGES/dvia/png.32x32/data/dvia_32x32/trn_mean.binaryproto"
  }
  data_param {
    source: "/home/maheriya/Projects/IMAGES/dvia/png.32x32/data/dvia_32x32/trn_lmdb"
    batch_size: 100
    backend: LMDB
  }
}
layer {
  name: "conv1"
  type: "Convolution"
  bottom: "data"
  top: "conv1"
  param {
    lr_mult: 0.2
    decay_mult: 0.2
  }
  param {
    lr_mult: 0.4
    decay_mult: 0
  }
  convolution_param {
    num_output: 80
    kernel_size: 5
    stride: 1
    weight_filler {
      type: "xavier"
    }
  }
}
layer {
  name: "pool1"
  type: "Pooling"
  bottom: "conv1"
  top: "pool1"
  pooling_param {
    pool: MAX
    kernel_size: 2
    stride: 2
  }
}
layer {
  name: "relu1b"
  type: "ReLU"
  bottom: "pool1"
  top: "pool1"
}
layer {
  name: "conv2"
  type: "Convolution"
  bottom: "pool1"
  top: "conv2"
  param {
    lr_mult: 1
    decay_mult: 1
  }
  param {
    lr_mult: 2
    decay_mult: 0
  }
  convolution_param {
    num_output: 160
    kernel_size: 3
    stride: 1
    weight_filler {
      type: "xavier"
    }
  }
}
layer {
  name: "pool2"
  type: "Pooling"
  bottom: "conv2"
  top: "pool2"
  pooling_param {
    pool: MAX
    kernel_size: 2
    stride: 2
  }
}
layer {
  name: "relu2"
  type: "ReLU"
  bottom: "pool2"
  top: "pool2"
}
layer {
  name: "conv3"
  type: "Convolution"
  bottom: "pool2"
  top: "conv3"
  param {
    lr_mult: 1
    decay_mult: 1
  }
  param {
    lr_mult: 2
    decay_mult: 0
  }
  convolution_param {
    num_output: 256
    kernel_size: 3
    stride: 1
    weight_filler {
      type: "xavier"
    }
  }
}
layer {
  name: "pool3"
  type: "Pooling"
  bottom: "conv3"
  top: "pool3"
  pooling_param {
    pool: MAX
    kernel_size: 2
    stride: 2
  }
}
layer {
  name: "relu3"
  type: "ReLU"
  bottom: "pool3"
  top: "pool3"
}
layer {
  name: "conv_last"
  type: "Convolution"
  bottom: "pool3"
  top: "conv_last"
  param {
    lr_mult: 1
    decay_mult: 1
  }
  param {
    lr_mult: 2
    decay_mult: 0
  }
  convolution_param {
    num_output: 384
    kernel_size: 1
    stride: 1
    weight_filler {
      type: "xavier"
    }
  }
}
layer {
  name: "relu_last"
  type: "ReLU"
  bottom: "conv_last"
  top: "conv_last"
}
layer {
  name: "fc_class"
  type: "InnerProduct"
  bottom: "conv_last"
  top: "fc_class"
  param {
    lr_mult: 1
    decay_mult: 1
  }
  param {
    lr_mult: 2
    decay_mult: 0
  }
  inner_product_param {
    num_output: 4
    weight_filler {
      type: "xavier"
    }
  }
}
layer {
  name: "accuracy_class"
  type: "Accuracy"
  bottom: "fc_class"
  bottom: "label"
  top: "accuracy_class"
}
layer {
  name: "loss_class"
  type: "SoftmaxWithLoss"
  bottom: "fc_class"
  bottom: "label"
  top: "loss_class"
}
I1111 19:22:04.176128 19184 layer_factory.hpp:77] Creating layer data
I1111 19:22:04.176563 19184 net.cpp:100] Creating Layer data
I1111 19:22:04.176569 19184 net.cpp:408] data -> data
I1111 19:22:04.176607 19184 net.cpp:408] data -> label
I1111 19:22:04.176622 19184 data_transformer.cpp:25] Loading mean file from: /home/maheriya/Projects/IMAGES/dvia/png.32x32/data/dvia_32x32/trn_mean.binaryproto
I1111 19:22:04.177306 19189 db_lmdb.cpp:35] Opened lmdb /home/maheriya/Projects/IMAGES/dvia/png.32x32/data/dvia_32x32/trn_lmdb
I1111 19:22:04.187029 19184 data_layer.cpp:41] output data size: 100,3,32,32
I1111 19:22:04.189098 19184 net.cpp:150] Setting up data
I1111 19:22:04.189139 19184 net.cpp:157] Top shape: 100 3 32 32 (307200)
I1111 19:22:04.189144 19184 net.cpp:157] Top shape: 100 (100)
I1111 19:22:04.189147 19184 net.cpp:165] Memory required for data: 1229200
I1111 19:22:04.189173 19184 layer_factory.hpp:77] Creating layer label_data_1_split
I1111 19:22:04.189198 19184 net.cpp:100] Creating Layer label_data_1_split
I1111 19:22:04.189201 19184 net.cpp:434] label_data_1_split <- label
I1111 19:22:04.189227 19184 net.cpp:408] label_data_1_split -> label_data_1_split_0
I1111 19:22:04.189255 19184 net.cpp:408] label_data_1_split -> label_data_1_split_1
I1111 19:22:04.189344 19184 net.cpp:150] Setting up label_data_1_split
I1111 19:22:04.189348 19184 net.cpp:157] Top shape: 100 (100)
I1111 19:22:04.189352 19184 net.cpp:157] Top shape: 100 (100)
I1111 19:22:04.189368 19184 net.cpp:165] Memory required for data: 1230000
I1111 19:22:04.189371 19184 layer_factory.hpp:77] Creating layer conv1
I1111 19:22:04.189395 19184 net.cpp:100] Creating Layer conv1
I1111 19:22:04.189399 19184 net.cpp:434] conv1 <- data
I1111 19:22:04.189404 19184 net.cpp:408] conv1 -> conv1
I1111 19:22:04.190237 19184 net.cpp:150] Setting up conv1
I1111 19:22:04.190259 19184 net.cpp:157] Top shape: 100 80 28 28 (6272000)
I1111 19:22:04.190263 19184 net.cpp:165] Memory required for data: 26318000
I1111 19:22:04.190292 19184 layer_factory.hpp:77] Creating layer pool1
I1111 19:22:04.190311 19184 net.cpp:100] Creating Layer pool1
I1111 19:22:04.190315 19184 net.cpp:434] pool1 <- conv1
I1111 19:22:04.190320 19184 net.cpp:408] pool1 -> pool1
I1111 19:22:04.190366 19184 net.cpp:150] Setting up pool1
I1111 19:22:04.190371 19184 net.cpp:157] Top shape: 100 80 14 14 (1568000)
I1111 19:22:04.190373 19184 net.cpp:165] Memory required for data: 32590000
I1111 19:22:04.190376 19184 layer_factory.hpp:77] Creating layer relu1b
I1111 19:22:04.190382 19184 net.cpp:100] Creating Layer relu1b
I1111 19:22:04.190385 19184 net.cpp:434] relu1b <- pool1
I1111 19:22:04.190390 19184 net.cpp:395] relu1b -> pool1 (in-place)
I1111 19:22:04.190394 19184 net.cpp:150] Setting up relu1b
I1111 19:22:04.190397 19184 net.cpp:157] Top shape: 100 80 14 14 (1568000)
I1111 19:22:04.190400 19184 net.cpp:165] Memory required for data: 38862000
I1111 19:22:04.190421 19184 layer_factory.hpp:77] Creating layer conv2
I1111 19:22:04.190428 19184 net.cpp:100] Creating Layer conv2
I1111 19:22:04.190430 19184 net.cpp:434] conv2 <- pool1
I1111 19:22:04.190435 19184 net.cpp:408] conv2 -> conv2
I1111 19:22:04.191588 19184 net.cpp:150] Setting up conv2
I1111 19:22:04.191596 19184 net.cpp:157] Top shape: 100 160 12 12 (2304000)
I1111 19:22:04.191612 19184 net.cpp:165] Memory required for data: 48078000
I1111 19:22:04.191618 19184 layer_factory.hpp:77] Creating layer pool2
I1111 19:22:04.191637 19184 net.cpp:100] Creating Layer pool2
I1111 19:22:04.191639 19184 net.cpp:434] pool2 <- conv2
I1111 19:22:04.191644 19184 net.cpp:408] pool2 -> pool2
I1111 19:22:04.191668 19184 net.cpp:150] Setting up pool2
I1111 19:22:04.191674 19184 net.cpp:157] Top shape: 100 160 6 6 (576000)
I1111 19:22:04.191678 19184 net.cpp:165] Memory required for data: 50382000
I1111 19:22:04.191679 19184 layer_factory.hpp:77] Creating layer relu2
I1111 19:22:04.191684 19184 net.cpp:100] Creating Layer relu2
I1111 19:22:04.191686 19184 net.cpp:434] relu2 <- pool2
I1111 19:22:04.191704 19184 net.cpp:395] relu2 -> pool2 (in-place)
I1111 19:22:04.191709 19184 net.cpp:150] Setting up relu2
I1111 19:22:04.191712 19184 net.cpp:157] Top shape: 100 160 6 6 (576000)
I1111 19:22:04.191715 19184 net.cpp:165] Memory required for data: 52686000
I1111 19:22:04.191717 19184 layer_factory.hpp:77] Creating layer conv3
I1111 19:22:04.191726 19184 net.cpp:100] Creating Layer conv3
I1111 19:22:04.191730 19184 net.cpp:434] conv3 <- pool2
I1111 19:22:04.191733 19184 net.cpp:408] conv3 -> conv3
I1111 19:22:04.194497 19184 net.cpp:150] Setting up conv3
I1111 19:22:04.194506 19184 net.cpp:157] Top shape: 100 256 4 4 (409600)
I1111 19:22:04.194542 19184 net.cpp:165] Memory required for data: 54324400
I1111 19:22:04.194551 19184 layer_factory.hpp:77] Creating layer pool3
I1111 19:22:04.194556 19184 net.cpp:100] Creating Layer pool3
I1111 19:22:04.194560 19184 net.cpp:434] pool3 <- conv3
I1111 19:22:04.194577 19184 net.cpp:408] pool3 -> pool3
I1111 19:22:04.194604 19184 net.cpp:150] Setting up pool3
I1111 19:22:04.194608 19184 net.cpp:157] Top shape: 100 256 2 2 (102400)
I1111 19:22:04.194612 19184 net.cpp:165] Memory required for data: 54734000
I1111 19:22:04.194615 19184 layer_factory.hpp:77] Creating layer relu3
I1111 19:22:04.194619 19184 net.cpp:100] Creating Layer relu3
I1111 19:22:04.194622 19184 net.cpp:434] relu3 <- pool3
I1111 19:22:04.194627 19184 net.cpp:395] relu3 -> pool3 (in-place)
I1111 19:22:04.194631 19184 net.cpp:150] Setting up relu3
I1111 19:22:04.194634 19184 net.cpp:157] Top shape: 100 256 2 2 (102400)
I1111 19:22:04.194638 19184 net.cpp:165] Memory required for data: 55143600
I1111 19:22:04.194639 19184 layer_factory.hpp:77] Creating layer conv_last
I1111 19:22:04.194659 19184 net.cpp:100] Creating Layer conv_last
I1111 19:22:04.194663 19184 net.cpp:434] conv_last <- pool3
I1111 19:22:04.194666 19184 net.cpp:408] conv_last -> conv_last
I1111 19:22:04.195431 19184 net.cpp:150] Setting up conv_last
I1111 19:22:04.195437 19184 net.cpp:157] Top shape: 100 384 2 2 (153600)
I1111 19:22:04.195439 19184 net.cpp:165] Memory required for data: 55758000
I1111 19:22:04.195444 19184 layer_factory.hpp:77] Creating layer relu_last
I1111 19:22:04.195448 19184 net.cpp:100] Creating Layer relu_last
I1111 19:22:04.195464 19184 net.cpp:434] relu_last <- conv_last
I1111 19:22:04.195469 19184 net.cpp:395] relu_last -> conv_last (in-place)
I1111 19:22:04.195473 19184 net.cpp:150] Setting up relu_last
I1111 19:22:04.195477 19184 net.cpp:157] Top shape: 100 384 2 2 (153600)
I1111 19:22:04.195480 19184 net.cpp:165] Memory required for data: 56372400
I1111 19:22:04.195483 19184 layer_factory.hpp:77] Creating layer fc_class
I1111 19:22:04.195488 19184 net.cpp:100] Creating Layer fc_class
I1111 19:22:04.195492 19184 net.cpp:434] fc_class <- conv_last
I1111 19:22:04.195497 19184 net.cpp:408] fc_class -> fc_class
I1111 19:22:04.195605 19184 net.cpp:150] Setting up fc_class
I1111 19:22:04.195611 19184 net.cpp:157] Top shape: 100 4 (400)
I1111 19:22:04.195612 19184 net.cpp:165] Memory required for data: 56374000
I1111 19:22:04.195619 19184 layer_factory.hpp:77] Creating layer fc_class_fc_class_0_split
I1111 19:22:04.195624 19184 net.cpp:100] Creating Layer fc_class_fc_class_0_split
I1111 19:22:04.195627 19184 net.cpp:434] fc_class_fc_class_0_split <- fc_class
I1111 19:22:04.195631 19184 net.cpp:408] fc_class_fc_class_0_split -> fc_class_fc_class_0_split_0
I1111 19:22:04.195637 19184 net.cpp:408] fc_class_fc_class_0_split -> fc_class_fc_class_0_split_1
I1111 19:22:04.195662 19184 net.cpp:150] Setting up fc_class_fc_class_0_split
I1111 19:22:04.195665 19184 net.cpp:157] Top shape: 100 4 (400)
I1111 19:22:04.195668 19184 net.cpp:157] Top shape: 100 4 (400)
I1111 19:22:04.195672 19184 net.cpp:165] Memory required for data: 56377200
I1111 19:22:04.195674 19184 layer_factory.hpp:77] Creating layer accuracy_class
I1111 19:22:04.195679 19184 net.cpp:100] Creating Layer accuracy_class
I1111 19:22:04.195683 19184 net.cpp:434] accuracy_class <- fc_class_fc_class_0_split_0
I1111 19:22:04.195686 19184 net.cpp:434] accuracy_class <- label_data_1_split_0
…
I1111 19:22:04.196038 19184 solver.cpp:181] Creating test net (#0) specified by test_net file: dvia_test.prototxt
I1111 19:22:04.196131 19184 net.cpp:58] Initializing net from parameters: 
state {
  phase: TEST
}
layer {
  name: "data"
  type: "Data"
  top: "data"
  top: "label"
  transform_param {
    scale: 0.00390625
    mirror: true
    mean_file: "/home/maheriya/Projects/IMAGES/dvia/png.32x32/data/dvia_32x32/val_mean.binaryproto"
  }
  data_param {
    source: "/home/maheriya/Projects/IMAGES/dvia/png.32x32/data/dvia_32x32/val_lmdb"
    batch_size: 120
    backend: LMDB
  }
}
layer {
  name: "conv1"
  type: "Convolution"
  bottom: "data"
  top: "conv1"
  param {
    lr_mult: 0.2
    decay_mult: 0.2
  }
  param {
    lr_mult: 0.4
    decay_mult: 0
  }
  convolution_param {
    num_output: 80
    kernel_size: 5
    stride: 1
    weight_filler {
      type: "xavier"
    }
  }
}
layer {
  name: "pool1"
  type: "Pooling"
  bottom: "conv1"
  top: "pool1"
  pooling_param {
    pool: MAX
    kernel_size: 2
    stride: 2
  }
}
layer {
  name: "relu1b"
  type: "ReLU"
  bottom: "pool1"
  top: "pool1"
}
layer {
  name: "conv2"
  type: "Convolution"
  bottom: "pool1"
  top: "conv2"
  param {
    lr_mult: 1
    decay_mult: 1
  }
  param {
    lr_mult: 2
    decay_mult: 0
  }
  convolution_param {
    num_output: 160
    kernel_size: 3
    stride: 1
    weight_filler {
      type: "xavier"
    }
  }
}
layer {
  name: "pool2"
  type: "Pooling"
  bottom: "conv2"
  top: "pool2"
  pooling_param {
    pool: MAX
    kernel_size: 2
    stride: 2
  }
}
layer {
  name: "relu2"
  type: "ReLU"
  bottom: "pool2"
  top: "pool2"
}
layer {
  name: "conv3"
  type: "Convolution"
  bottom: "pool2"
  top: "conv3"
  param {
    lr_mult: 1
    decay_mult: 1
  }
  param {
    lr_mult: 2
    decay_mult: 0
  }
  convolution_param {
    num_output: 256
    kernel_size: 3
    stride: 1
    weight_filler {
      type: "xavier"
    }
  }
}
layer {
  name: "pool3"
  type: "Pooling"
  bottom: "conv3"
  top: "pool3"
  pooling_param {
    pool: MAX
    kernel_size: 2
    stride: 2
  }
}
layer {
  name: "relu3"
  type: "ReLU"
  bottom: "pool3"
  top: "pool3"
}
layer {
  name: "conv_last"
  type: "Convolution"
  bottom: "pool3"
  top: "conv_last"
  param {
    lr_mult: 1
    decay_mult: 1
  }
  param {
    lr_mult: 2
    decay_mult: 0
  }
  convolution_param {
    num_output: 384
    kernel_size: 1
    stride: 1
    weight_filler {
      type: "xavier"
    }
  }
}
layer {
  name: "relu_last"
  type: "ReLU"
  bottom: "conv_last"
  top: "conv_last"
}
layer {
  name: "fc_class"
  type: "InnerProduct"
  bottom: "conv_last"
  top: "fc_class"
  param {
    lr_mult: 1
    decay_mult: 1
  }
  param {
    lr_mult: 2
    decay_mult: 0
  }
  inner_product_param {
    num_output: 4
    weight_filler {
      type: "xavier"
    }
  }
}
layer {
  name: "accuracy_class"
  type: "Accuracy"
  bottom: "fc_class"
  bottom: "label"
  top: "accuracy_class"
}
layer {
  name: "loss_class"
  type: "SoftmaxWithLoss"
  bottom: "fc_class"
  bottom: "label"
  top: "loss_class"
}
I1111 19:22:04.196274 19184 layer_factory.hpp:77] Creating layer data
I1111 19:22:04.196367 19184 net.cpp:100] Creating Layer data
I1111 19:22:04.196377 19184 net.cpp:408] data -> data
I1111 19:22:04.196398 19184 net.cpp:408] data -> label
I1111 19:22:04.196403 19184 data_transformer.cpp:25] Loading mean file from: /home/maheriya/Projects/IMAGES/dvia/png.32x32/data/dvia_32x32/val_mean.binaryproto
I1111 19:22:04.197180 19191 db_lmdb.cpp:35] Opened lmdb /home/maheriya/Projects/IMAGES/dvia/png.32x32/data/dvia_32x32/val_lmdb
I1111 19:22:04.197307 19184 data_layer.cpp:41] output data size: 120,3,32,32
I1111 19:22:04.199607 19184 net.cpp:150] Setting up data
I1111 19:22:04.199625 19184 net.cpp:157] Top shape: 120 3 32 32 (368640)
I1111 19:22:04.199628 19184 net.cpp:157] Top shape: 120 (120)
I1111 19:22:04.199630 19184 net.cpp:165] Memory required for data: 1475040
I1111 19:22:04.199636 19184 layer_factory.hpp:77] Creating layer label_data_1_split
I1111 19:22:04.199645 19184 net.cpp:100] Creating Layer label_data_1_split
I1111 19:22:04.199648 19184 net.cpp:434] label_data_1_split <- label
I1111 19:22:04.199656 19184 net.cpp:408] label_data_1_split -> label_data_1_split_0
I1111 19:22:04.199662 19184 net.cpp:408] label_data_1_split -> label_data_1_split_1
I1111 19:22:04.199697 19184 net.cpp:150] Setting up label_data_1_split
I1111 19:22:04.199700 19184 net.cpp:157] Top shape: 120 (120)
I1111 19:22:04.199703 19184 net.cpp:157] Top shape: 120 (120)
I1111 19:22:04.199707 19184 net.cpp:165] Memory required for data: 1476000
I1111 19:22:04.199708 19184 layer_factory.hpp:77] Creating layer conv1
I1111 19:22:04.199719 19184 net.cpp:100] Creating Layer conv1
I1111 19:22:04.199723 19184 net.cpp:434] conv1 <- data
I1111 19:22:04.199728 19184 net.cpp:408] conv1 -> conv1
I1111 19:22:04.199930 19184 net.cpp:150] Setting up conv1
I1111 19:22:04.199936 19184 net.cpp:157] Top shape: 120 80 28 28 (7526400)
I1111 19:22:04.199939 19184 net.cpp:165] Memory required for data: 31581600
I1111 19:22:04.199946 19184 layer_factory.hpp:77] Creating layer pool1
I1111 19:22:04.199952 19184 net.cpp:100] Creating Layer pool1
I1111 19:22:04.199955 19184 net.cpp:434] pool1 <- conv1
I1111 19:22:04.199959 19184 net.cpp:408] pool1 -> pool1
I1111 19:22:04.199985 19184 net.cpp:150] Setting up pool1
I1111 19:22:04.199990 19184 net.cpp:157] Top shape: 120 80 14 14 (1881600)
I1111 19:22:04.199992 19184 net.cpp:165] Memory required for data: 39108000
I1111 19:22:04.199995 19184 layer_factory.hpp:77] Creating layer relu1b
I1111 19:22:04.200001 19184 net.cpp:100] Creating Layer relu1b
I1111 19:22:04.200004 19184 net.cpp:434] relu1b <- pool1
I1111 19:22:04.200008 19184 net.cpp:395] relu1b -> pool1 (in-place)
I1111 19:22:04.200012 19184 net.cpp:150] Setting up relu1b
I1111 19:22:04.200016 19184 net.cpp:157] Top shape: 120 80 14 14 (1881600)
I1111 19:22:04.200019 19184 net.cpp:165] Memory required for data: 46634400
I1111 19:22:04.200028 19184 layer_factory.hpp:77] Creating layer conv2
I1111 19:22:04.200037 19184 net.cpp:100] Creating Layer conv2
I1111 19:22:04.200040 19184 net.cpp:434] conv2 <- pool1
I1111 19:22:04.200044 19184 net.cpp:408] conv2 -> conv2
I1111 19:22:04.201290 19184 net.cpp:150] Setting up conv2
I1111 19:22:04.201304 19184 net.cpp:157] Top shape: 120 160 12 12 (2764800)
I1111 19:22:04.201308 19184 net.cpp:165] Memory required for data: 57693600
I1111 19:22:04.201318 19184 layer_factory.hpp:77] Creating layer pool2
I1111 19:22:04.201325 19184 net.cpp:100] Creating Layer pool2
I1111 19:22:04.201328 19184 net.cpp:434] pool2 <- conv2
I1111 19:22:04.201334 19184 net.cpp:408] pool2 -> pool2
I1111 19:22:04.201376 19184 net.cpp:150] Setting up pool2
I1111 19:22:04.201380 19184 net.cpp:157] Top shape: 120 160 6 6 (691200)
I1111 19:22:04.201383 19184 net.cpp:165] Memory required for data: 60458400
I1111 19:22:04.201386 19184 layer_factory.hpp:77] Creating layer relu2
I1111 19:22:04.201391 19184 net.cpp:100] Creating Layer relu2
I1111 19:22:04.201395 19184 net.cpp:434] relu2 <- pool2
I1111 19:22:04.201398 19184 net.cpp:395] relu2 -> pool2 (in-place)
I1111 19:22:04.201403 19184 net.cpp:150] Setting up relu2
I1111 19:22:04.201407 19184 net.cpp:157] Top shape: 120 160 6 6 (691200)
I1111 19:22:04.201409 19184 net.cpp:165] Memory required for data: 63223200
I1111 19:22:04.201412 19184 layer_factory.hpp:77] Creating layer conv3
I1111 19:22:04.201421 19184 net.cpp:100] Creating Layer conv3
I1111 19:22:04.201423 19184 net.cpp:434] conv3 <- pool2
I1111 19:22:04.201427 19184 net.cpp:408] conv3 -> conv3
I1111 19:22:04.204324 19184 net.cpp:150] Setting up conv3
I1111 19:22:04.204344 19184 net.cpp:157] Top shape: 120 256 4 4 (491520)
I1111 19:22:04.204347 19184 net.cpp:165] Memory required for data: 65189280
I1111 19:22:04.204355 19184 layer_factory.hpp:77] Creating layer pool3
I1111 19:22:04.204363 19184 net.cpp:100] Creating Layer pool3
I1111 19:22:04.204367 19184 net.cpp:434] pool3 <- conv3
I1111 19:22:04.204372 19184 net.cpp:408] pool3 -> pool3
I1111 19:22:04.204401 19184 net.cpp:150] Setting up pool3
I1111 19:22:04.204406 19184 net.cpp:157] Top shape: 120 256 2 2 (122880)
I1111 19:22:04.204408 19184 net.cpp:165] Memory required for data: 65680800
I1111 19:22:04.204411 19184 layer_factory.hpp:77] Creating layer relu3
I1111 19:22:04.204416 19184 net.cpp:100] Creating Layer relu3
I1111 19:22:04.204418 19184 net.cpp:434] relu3 <- pool3
I1111 19:22:04.204422 19184 net.cpp:395] relu3 -> pool3 (in-place)
I1111 19:22:04.204427 19184 net.cpp:150] Setting up relu3
I1111 19:22:04.204430 19184 net.cpp:157] Top shape: 120 256 2 2 (122880)
I1111 19:22:04.204433 19184 net.cpp:165] Memory required for data: 66172320
I1111 19:22:04.204437 19184 layer_factory.hpp:77] Creating layer conv_last
I1111 19:22:04.204442 19184 net.cpp:100] Creating Layer conv_last
I1111 19:22:04.204445 19184 net.cpp:434] conv_last <- pool3
I1111 19:22:04.204450 19184 net.cpp:408] conv_last -> conv_last
I1111 19:22:04.205268 19184 net.cpp:150] Setting up conv_last
I1111 19:22:04.205274 19184 net.cpp:157] Top shape: 120 384 2 2 (184320)
I1111 19:22:04.205277 19184 net.cpp:165] Memory required for data: 66909600
I1111 19:22:04.205281 19184 layer_factory.hpp:77] Creating layer relu_last
I1111 19:22:04.205289 19184 net.cpp:100] Creating Layer relu_last
I1111 19:22:04.205294 19184 net.cpp:434] relu_last <- conv_last
I1111 19:22:04.205302 19184 net.cpp:395] relu_last -> conv_last (in-place)
I1111 19:22:04.205308 19184 net.cpp:150] Setting up relu_last
I1111 19:22:04.205315 19184 net.cpp:157] Top shape: 120 384 2 2 (184320)
I1111 19:22:04.205320 19184 net.cpp:165] Memory required for data: 67646880
I1111 19:22:04.205324 19184 layer_factory.hpp:77] Creating layer fc_class
I1111 19:22:04.205332 19184 net.cpp:100] Creating Layer fc_class
I1111 19:22:04.205337 19184 net.cpp:434] fc_class <- conv_last
I1111 19:22:04.205344 19184 net.cpp:408] fc_class -> fc_class
I1111 19:22:04.205608 19184 net.cpp:150] Setting up fc_class
I1111 19:22:04.205615 19184 net.cpp:157] Top shape: 120 4 (480)
I1111 19:22:04.205618 19184 net.cpp:165] Memory required for data: 67648800
I1111 19:22:04.205624 19184 layer_factory.hpp:77] Creating layer fc_class_fc_class_0_split
I1111 19:22:04.205629 19184 net.cpp:100] Creating Layer fc_class_fc_class_0_split
I1111 19:22:04.205651 19184 net.cpp:434] fc_class_fc_class_0_split <- fc_class
I1111 19:22:04.205657 19184 net.cpp:408] fc_class_fc_class_0_split -> fc_class_fc_class_0_split_0
I1111 19:22:04.205663 19184 net.cpp:408] fc_class_fc_class_0_split -> fc_class_fc_class_0_split_1
I1111 19:22:04.205689 19184 net.cpp:150] Setting up fc_class_fc_class_0_split
I1111 19:22:04.205708 19184 net.cpp:157] Top shape: 120 4 (480)
I1111 19:22:04.205711 19184 net.cpp:157] Top shape: 120 4 (480)
I1111 19:22:04.205713 19184 net.cpp:165] Memory required for data: 67652640
I1111 19:22:04.205716 19184 layer_factory.hpp:77] Creating layer accuracy_class
I1111 19:22:04.205721 19184 net.cpp:100] Creating Layer accuracy_class
I1111 19:22:04.205724 19184 net.cpp:434] accuracy_class <- fc_class_fc_class_0_split_0
I1111 19:22:04.205729 19184 net.cpp:434] accuracy_class <- label_data_1_split_0
…
