…
I1025 19:28:11.505792 24808 solver.cpp:81] Creating training net from train_net file: dvia_train.prototxt
I1025 19:28:11.506083 24808 net.cpp:58] Initializing net from parameters: 
state {
  phase: TRAIN
}
layer {
  name: "data"
  type: "Data"
  top: "data"
  top: "label"
  transform_param {
    scale: 0.00390625
    mirror: true
    mean_file: "/home/maheriya/Projects/IMAGES/dvia/png.32x32/data/dvia_32x32/trn_mean.binaryproto"
  }
  data_param {
    source: "/home/maheriya/Projects/IMAGES/dvia/png.32x32/data/dvia_32x32/trn_lmdb"
    batch_size: 120
    backend: LMDB
  }
}
layer {
  name: "conv1"
  type: "Convolution"
  bottom: "data"
  top: "conv1"
  param {
    lr_mult: 0.1
    decay_mult: 0.1
  }
  param {
    lr_mult: 0.2
    decay_mult: 0
  }
  convolution_param {
    num_output: 64
    kernel_size: 5
    stride: 1
    weight_filler {
      type: "xavier"
    }
  }
}
layer {
  name: "cccp1a"
  type: "Convolution"
  bottom: "conv1"
  top: "cccp1a"
  param {
    lr_mult: 0.1
    decay_mult: 0.1
  }
  param {
    lr_mult: 0.2
    decay_mult: 0
  }
  convolution_param {
    num_output: 42
    kernel_size: 1
    stride: 1
    weight_filler {
      type: "xavier"
    }
  }
}
layer {
  name: "relu1a"
  type: "ReLU"
  bottom: "cccp1a"
  top: "cccp1a"
}
layer {
  name: "cccp1b"
  type: "Convolution"
  bottom: "cccp1a"
  top: "cccp1b"
  param {
    lr_mult: 0.1
    decay_mult: 0.1
  }
  param {
    lr_mult: 0.2
    decay_mult: 0
  }
  convolution_param {
    num_output: 42
    kernel_size: 1
    stride: 1
    weight_filler {
      type: "xavier"
    }
  }
}
layer {
  name: "pool1"
  type: "Pooling"
  bottom: "cccp1b"
  top: "pool1"
  pooling_param {
    pool: MAX
    kernel_size: 2
    stride: 2
  }
}
layer {
  name: "relu1b"
  type: "ReLU"
  bottom: "pool1"
  top: "pool1"
}
layer {
  name: "conv2"
  type: "Convolution"
  bottom: "pool1"
  top: "conv2"
  param {
    lr_mult: 1
    decay_mult: 1
  }
  param {
    lr_mult: 2
    decay_mult: 0
  }
  convolution_param {
    num_output: 64
    kernel_size: 3
    stride: 1
    weight_filler {
      type: "xavier"
    }
  }
}
layer {
  name: "pool2"
  type: "Pooling"
  bottom: "conv2"
  top: "pool2"
  pooling_param {
    pool: MAX
    kernel_size: 2
    stride: 2
  }
}
layer {
  name: "relu2"
  type: "ReLU"
  bottom: "pool2"
  top: "pool2"
}
layer {
  name: "conv3"
  type: "Convolution"
  bottom: "pool2"
  top: "conv3"
  param {
    lr_mult: 1
    decay_mult: 1
  }
  param {
    lr_mult: 2
    decay_mult: 0
  }
  convolution_param {
    num_output: 128
    kernel_size: 3
    stride: 1
    weight_filler {
      type: "xavier"
    }
  }
}
layer {
  name: "pool3"
  type: "Pooling"
  bottom: "conv3"
  top: "pool3"
  pooling_param {
    pool: MAX
    kernel_size: 2
    stride: 2
  }
}
layer {
  name: "relu3"
  type: "ReLU"
  bottom: "pool3"
  top: "pool3"
}
layer {
  name: "conv_last"
  type: "Convolution"
  bottom: "pool3"
  top: "conv_last"
  param {
    lr_mult: 1
    decay_mult: 1
  }
  param {
    lr_mult: 2
    decay_mult: 0
  }
  convolution_param {
    num_output: 256
    kernel_size: 1
    stride: 1
    weight_filler {
      type: "xavier"
    }
  }
}
layer {
  name: "relu_last"
  type: "ReLU"
  bottom: "conv_last"
  top: "conv_last"
}
layer {
  name: "fc_class"
  type: "InnerProduct"
  bottom: "conv_last"
  top: "fc_class"
  param {
    lr_mult: 1
    decay_mult: 1
  }
  param {
    lr_mult: 2
    decay_mult: 0
  }
  inner_product_param {
    num_output: 4
    weight_filler {
      type: "xavier"
    }
  }
}
layer {
  name: "accuracy_class"
  type: "Accuracy"
  bottom: "fc_class"
  bottom: "label"
  top: "accuracy_class"
}
layer {
  name: "loss_class"
  type: "SoftmaxWithLoss"
  bottom: "fc_class"
  bottom: "label"
  top: "loss_class"
}
I1025 19:28:11.506172 24808 layer_factory.hpp:77] Creating layer data
I1025 19:28:11.507081 24808 net.cpp:100] Creating Layer data
I1025 19:28:11.507087 24808 net.cpp:408] data -> data
I1025 19:28:11.507108 24808 net.cpp:408] data -> label
I1025 19:28:11.507130 24808 data_transformer.cpp:25] Loading mean file from: /home/maheriya/Projects/IMAGES/dvia/png.32x32/data/dvia_32x32/trn_mean.binaryproto
I1025 19:28:11.509555 24848 db_lmdb.cpp:35] Opened lmdb /home/maheriya/Projects/IMAGES/dvia/png.32x32/data/dvia_32x32/trn_lmdb
I1025 19:28:11.517606 24808 data_layer.cpp:41] output data size: 120,3,32,32
I1025 19:28:11.520354 24808 net.cpp:150] Setting up data
I1025 19:28:11.520383 24808 net.cpp:157] Top shape: 120 3 32 32 (368640)
I1025 19:28:11.520386 24808 net.cpp:157] Top shape: 120 (120)
I1025 19:28:11.520401 24808 net.cpp:165] Memory required for data: 1475040
I1025 19:28:11.520406 24808 layer_factory.hpp:77] Creating layer label_data_1_split
I1025 19:28:11.520414 24808 net.cpp:100] Creating Layer label_data_1_split
I1025 19:28:11.520417 24808 net.cpp:434] label_data_1_split <- label
I1025 19:28:11.520423 24808 net.cpp:408] label_data_1_split -> label_data_1_split_0
I1025 19:28:11.520443 24808 net.cpp:408] label_data_1_split -> label_data_1_split_1
I1025 19:28:11.520519 24808 net.cpp:150] Setting up label_data_1_split
I1025 19:28:11.520524 24808 net.cpp:157] Top shape: 120 (120)
I1025 19:28:11.520539 24808 net.cpp:157] Top shape: 120 (120)
I1025 19:28:11.520539 24808 net.cpp:165] Memory required for data: 1476000
I1025 19:28:11.520541 24808 layer_factory.hpp:77] Creating layer conv1
I1025 19:28:11.520548 24808 net.cpp:100] Creating Layer conv1
I1025 19:28:11.520550 24808 net.cpp:434] conv1 <- data
I1025 19:28:11.520553 24808 net.cpp:408] conv1 -> conv1
I1025 19:28:11.521375 24808 net.cpp:150] Setting up conv1
I1025 19:28:11.521381 24808 net.cpp:157] Top shape: 120 64 28 28 (6021120)
I1025 19:28:11.521384 24808 net.cpp:165] Memory required for data: 25560480
I1025 19:28:11.521390 24808 layer_factory.hpp:77] Creating layer cccp1a
I1025 19:28:11.521396 24808 net.cpp:100] Creating Layer cccp1a
I1025 19:28:11.521417 24808 net.cpp:434] cccp1a <- conv1
I1025 19:28:11.521421 24808 net.cpp:408] cccp1a -> cccp1a
I1025 19:28:11.521734 24808 net.cpp:150] Setting up cccp1a
I1025 19:28:11.521739 24808 net.cpp:157] Top shape: 120 42 28 28 (3951360)
I1025 19:28:11.521739 24808 net.cpp:165] Memory required for data: 41365920
I1025 19:28:11.521760 24808 layer_factory.hpp:77] Creating layer relu1a
I1025 19:28:11.521765 24808 net.cpp:100] Creating Layer relu1a
I1025 19:28:11.521782 24808 net.cpp:434] relu1a <- cccp1a
I1025 19:28:11.521785 24808 net.cpp:395] relu1a -> cccp1a (in-place)
I1025 19:28:11.521790 24808 net.cpp:150] Setting up relu1a
I1025 19:28:11.521792 24808 net.cpp:157] Top shape: 120 42 28 28 (3951360)
I1025 19:28:11.521793 24808 net.cpp:165] Memory required for data: 57171360
I1025 19:28:11.521795 24808 layer_factory.hpp:77] Creating layer cccp1b
I1025 19:28:11.521800 24808 net.cpp:100] Creating Layer cccp1b
I1025 19:28:11.521801 24808 net.cpp:434] cccp1b <- cccp1a
I1025 19:28:11.521806 24808 net.cpp:408] cccp1b -> cccp1b
I1025 19:28:11.521965 24808 net.cpp:150] Setting up cccp1b
I1025 19:28:11.521970 24808 net.cpp:157] Top shape: 120 42 28 28 (3951360)
I1025 19:28:11.521970 24808 net.cpp:165] Memory required for data: 72976800
I1025 19:28:11.521975 24808 layer_factory.hpp:77] Creating layer pool1
I1025 19:28:11.521980 24808 net.cpp:100] Creating Layer pool1
I1025 19:28:11.521981 24808 net.cpp:434] pool1 <- cccp1b
I1025 19:28:11.521983 24808 net.cpp:408] pool1 -> pool1
I1025 19:28:11.522020 24808 net.cpp:150] Setting up pool1
I1025 19:28:11.522023 24808 net.cpp:157] Top shape: 120 42 14 14 (987840)
I1025 19:28:11.522025 24808 net.cpp:165] Memory required for data: 76928160
I1025 19:28:11.522027 24808 layer_factory.hpp:77] Creating layer relu1b
I1025 19:28:11.522030 24808 net.cpp:100] Creating Layer relu1b
I1025 19:28:11.522032 24808 net.cpp:434] relu1b <- pool1
I1025 19:28:11.522034 24808 net.cpp:395] relu1b -> pool1 (in-place)
I1025 19:28:11.522037 24808 net.cpp:150] Setting up relu1b
I1025 19:28:11.522039 24808 net.cpp:157] Top shape: 120 42 14 14 (987840)
I1025 19:28:11.522040 24808 net.cpp:165] Memory required for data: 80879520
I1025 19:28:11.522042 24808 layer_factory.hpp:77] Creating layer conv2
I1025 19:28:11.522061 24808 net.cpp:100] Creating Layer conv2
I1025 19:28:11.522063 24808 net.cpp:434] conv2 <- pool1
I1025 19:28:11.522066 24808 net.cpp:408] conv2 -> conv2
I1025 19:28:11.522682 24808 net.cpp:150] Setting up conv2
I1025 19:28:11.522688 24808 net.cpp:157] Top shape: 120 64 12 12 (1105920)
I1025 19:28:11.522691 24808 net.cpp:165] Memory required for data: 85303200
I1025 19:28:11.522694 24808 layer_factory.hpp:77] Creating layer pool2
I1025 19:28:11.522712 24808 net.cpp:100] Creating Layer pool2
I1025 19:28:11.522716 24808 net.cpp:434] pool2 <- conv2
I1025 19:28:11.522717 24808 net.cpp:408] pool2 -> pool2
I1025 19:28:11.522740 24808 net.cpp:150] Setting up pool2
I1025 19:28:11.522749 24808 net.cpp:157] Top shape: 120 64 6 6 (276480)
I1025 19:28:11.522752 24808 net.cpp:165] Memory required for data: 86409120
I1025 19:28:11.522753 24808 layer_factory.hpp:77] Creating layer relu2
I1025 19:28:11.522756 24808 net.cpp:100] Creating Layer relu2
I1025 19:28:11.522758 24808 net.cpp:434] relu2 <- pool2
I1025 19:28:11.522760 24808 net.cpp:395] relu2 -> pool2 (in-place)
I1025 19:28:11.522764 24808 net.cpp:150] Setting up relu2
I1025 19:28:11.522766 24808 net.cpp:157] Top shape: 120 64 6 6 (276480)
I1025 19:28:11.522768 24808 net.cpp:165] Memory required for data: 87515040
I1025 19:28:11.522769 24808 layer_factory.hpp:77] Creating layer conv3
I1025 19:28:11.522774 24808 net.cpp:100] Creating Layer conv3
I1025 19:28:11.522776 24808 net.cpp:434] conv3 <- pool2
I1025 19:28:11.522779 24808 net.cpp:408] conv3 -> conv3
I1025 19:28:11.523665 24808 net.cpp:150] Setting up conv3
I1025 19:28:11.523672 24808 net.cpp:157] Top shape: 120 128 4 4 (245760)
I1025 19:28:11.523674 24808 net.cpp:165] Memory required for data: 88498080
I1025 19:28:11.523679 24808 layer_factory.hpp:77] Creating layer pool3
I1025 19:28:11.523684 24808 net.cpp:100] Creating Layer pool3
I1025 19:28:11.523686 24808 net.cpp:434] pool3 <- conv3
I1025 19:28:11.523689 24808 net.cpp:408] pool3 -> pool3
I1025 19:28:11.523746 24808 net.cpp:150] Setting up pool3
I1025 19:28:11.523749 24808 net.cpp:157] Top shape: 120 128 2 2 (61440)
I1025 19:28:11.523751 24808 net.cpp:165] Memory required for data: 88743840
I1025 19:28:11.523752 24808 layer_factory.hpp:77] Creating layer relu3
I1025 19:28:11.523756 24808 net.cpp:100] Creating Layer relu3
I1025 19:28:11.523757 24808 net.cpp:434] relu3 <- pool3
I1025 19:28:11.523761 24808 net.cpp:395] relu3 -> pool3 (in-place)
I1025 19:28:11.523764 24808 net.cpp:150] Setting up relu3
I1025 19:28:11.523766 24808 net.cpp:157] Top shape: 120 128 2 2 (61440)
I1025 19:28:11.523768 24808 net.cpp:165] Memory required for data: 88989600
I1025 19:28:11.523769 24808 layer_factory.hpp:77] Creating layer conv_last
I1025 19:28:11.523774 24808 net.cpp:100] Creating Layer conv_last
I1025 19:28:11.523777 24808 net.cpp:434] conv_last <- pool3
I1025 19:28:11.523780 24808 net.cpp:408] conv_last -> conv_last
I1025 19:28:11.524113 24808 net.cpp:150] Setting up conv_last
I1025 19:28:11.524116 24808 net.cpp:157] Top shape: 120 256 2 2 (122880)
I1025 19:28:11.524118 24808 net.cpp:165] Memory required for data: 89481120
I1025 19:28:11.524121 24808 layer_factory.hpp:77] Creating layer relu_last
I1025 19:28:11.524134 24808 net.cpp:100] Creating Layer relu_last
I1025 19:28:11.524137 24808 net.cpp:434] relu_last <- conv_last
I1025 19:28:11.524142 24808 net.cpp:395] relu_last -> conv_last (in-place)
I1025 19:28:11.524145 24808 net.cpp:150] Setting up relu_last
I1025 19:28:11.524147 24808 net.cpp:157] Top shape: 120 256 2 2 (122880)
I1025 19:28:11.524149 24808 net.cpp:165] Memory required for data: 89972640
I1025 19:28:11.524150 24808 layer_factory.hpp:77] Creating layer fc_class
I1025 19:28:11.524157 24808 net.cpp:100] Creating Layer fc_class
I1025 19:28:11.524158 24808 net.cpp:434] fc_class <- conv_last
I1025 19:28:11.524161 24808 net.cpp:408] fc_class -> fc_class
I1025 19:28:11.524252 24808 net.cpp:150] Setting up fc_class
I1025 19:28:11.524256 24808 net.cpp:157] Top shape: 120 4 (480)
I1025 19:28:11.524257 24808 net.cpp:165] Memory required for data: 89974560
I1025 19:28:11.524260 24808 layer_factory.hpp:77] Creating layer fc_class_fc_class_0_split
I1025 19:28:11.524265 24808 net.cpp:100] Creating Layer fc_class_fc_class_0_split
I1025 19:28:11.524267 24808 net.cpp:434] fc_class_fc_class_0_split <- fc_class
I1025 19:28:11.524271 24808 net.cpp:408] fc_class_fc_class_0_split -> fc_class_fc_class_0_split_0
I1025 19:28:11.524274 24808 net.cpp:408] fc_class_fc_class_0_split -> fc_class_fc_class_0_split_1
I1025 19:28:11.524308 24808 net.cpp:150] Setting up fc_class_fc_class_0_split
I1025 19:28:11.524312 24808 net.cpp:157] Top shape: 120 4 (480)
I1025 19:28:11.524314 24808 net.cpp:157] Top shape: 120 4 (480)
I1025 19:28:11.524315 24808 net.cpp:165] Memory required for data: 89978400
I1025 19:28:11.524317 24808 layer_factory.hpp:77] Creating layer accuracy_class
I1025 19:28:11.524320 24808 net.cpp:100] Creating Layer accuracy_class
I1025 19:28:11.524322 24808 net.cpp:434] accuracy_class <- fc_class_fc_class_0_split_0
I1025 19:28:11.524325 24808 net.cpp:434] accuracy_class <- label_data_1_split_0
…
I1025 19:28:11.761739 24854 solver.cpp:81] Creating training net from train_net file: dvia_pretrain.prototxt
I1025 19:28:11.762104 24854 net.cpp:58] Initializing net from parameters: 
state {
  phase: TRAIN
  level: 0
  stage: ""
}
layer {
  name: "data"
  type: "Data"
  top: "data"
  top: "label_coarse"
  transform_param {
    scale: 0.00390625
    mirror: true
    mean_file: "/home/maheriya/Projects/IMAGES/dvia/cifar_png.32x32/data/cifar_32x32/trn_mean.binaryproto"
  }
  data_param {
    source: "/home/maheriya/Projects/IMAGES/dvia/cifar_png.32x32/data/cifar_32x32/trn_lmdb"
    batch_size: 120
    backend: LMDB
  }
}
layer {
  name: "conv1"
  type: "Convolution"
  bottom: "data"
  top: "conv1"
  param {
    lr_mult: 1
    decay_mult: 1
  }
  param {
    lr_mult: 2
    decay_mult: 0
  }
  convolution_param {
    num_output: 64
    kernel_size: 5
    stride: 1
    weight_filler {
      type: "xavier"
    }
  }
}
layer {
  name: "cccp1a"
  type: "Convolution"
  bottom: "conv1"
  top: "cccp1a"
  param {
    lr_mult: 1
    decay_mult: 1
  }
  param {
    lr_mult: 2
    decay_mult: 0
  }
  convolution_param {
    num_output: 42
    kernel_size: 1
    stride: 1
    weight_filler {
      type: "xavier"
    }
  }
}
layer {
  name: "relu1a"
  type: "ReLU"
  bottom: "cccp1a"
  top: "cccp1a"
}
layer {
  name: "cccp1b"
  type: "Convolution"
  bottom: "cccp1a"
  top: "cccp1b"
  param {
    lr_mult: 1
    decay_mult: 1
  }
  param {
    lr_mult: 2
    decay_mult: 0
  }
  convolution_param {
    num_output: 42
    kernel_size: 1
    stride: 1
    weight_filler {
      type: "xavier"
    }
  }
}
layer {
  name: "pool1"
  type: "Pooling"
  bottom: "cccp1b"
  top: "pool1"
  pooling_param {
    pool: MAX
    kernel_size: 2
    stride: 2
  }
}
layer {
  name: "relu1b"
  type: "ReLU"
  bottom: "pool1"
  top: "pool1"
}
layer {
  name: "conv2"
  type: "Convolution"
  bottom: "pool1"
  top: "conv2"
  param {
    lr_mult: 1
    decay_mult: 1
  }
  param {
    lr_mult: 2
    decay_mult: 0
  }
  convolution_param {
    num_output: 64
    kernel_size: 3
    stride: 1
    weight_filler {
      type: "xavier"
    }
  }
}
layer {
  name: "pool2"
  type: "Pooling"
  bottom: "conv2"
  top: "pool2"
  pooling_param {
    pool: MAX
    kernel_size: 2
    stride: 2
  }
}
layer {
  name: "relu2"
  type: "ReLU"
  bottom: "pool2"
  top: "pool2"
}
layer {
  name: "conv3"
  type: "Convolution"
  bottom: "pool2"
  top: "conv3"
  param {
    lr_mult: 1
    decay_mult: 1
  }
  param {
    lr_mult: 2
    decay_mult: 0
  }
  convolution_param {
    num_output: 128
    kernel_size: 3
    stride: 1
    weight_filler {
      type: "xavier"
    }
  }
}
layer {
  name: "pool3"
  type: "Pooling"
  bottom: "conv3"
  top: "pool3"
  pooling_param {
    pool: MAX
    kernel_size: 2
    stride: 2
  }
}
layer {
  name: "relu3"
  type: "ReLU"
  bottom: "pool3"
  top: "pool3"
}
layer {
  name: "conv_last"
  type: "Convolution"
  bottom: "pool3"
  top: "conv_last"
  param {
    lr_mult: 1
    decay_mult: 1
  }
  param {
    lr_mult: 2
    decay_mult: 0
  }
  convolution_param {
    num_output: 256
    kernel_size: 1
    stride: 1
    weight_filler {
      type: "xavier"
    }
  }
}
layer {
  name: "relu_last"
  type: "ReLU"
  bottom: "conv_last"
  top: "conv_last"
}
layer {
  name: "fc_coarse"
  type: "InnerProduct"
  bottom: "conv_last"
  top: "fc_coarse"
  param {
    lr_mult: 1
    decay_mult: 1
  }
  param {
    lr_mult: 2
    decay_mult: 0
  }
  inner_product_param {
    num_output: 20
    weight_filler {
      type: "xavier"
    }
  }
}
layer {
  name: "accuracy_coarse"
  type: "Accuracy"
  bottom: "fc_coarse"
  bottom: "label_coarse"
  top: "accuracy_coarse"
}
layer {
  name: "loss_coarse"
  type: "SoftmaxWithLoss"
  bottom: "fc_coarse"
  bottom: "label_coarse"
  top: "loss_coarse"
}
I1025 19:28:11.762269 24854 layer_factory.hpp:77] Creating layer data
I1025 19:28:11.762755 24854 net.cpp:100] Creating Layer data
I1025 19:28:11.762763 24854 net.cpp:408] data -> data
I1025 19:28:11.762814 24854 net.cpp:408] data -> label_coarse
I1025 19:28:11.762832 24854 data_transformer.cpp:25] Loading mean file from: /home/maheriya/Projects/IMAGES/dvia/cifar_png.32x32/data/cifar_32x32/trn_mean.binaryproto
I1025 19:28:11.763548 24858 db_lmdb.cpp:35] Opened lmdb /home/maheriya/Projects/IMAGES/dvia/cifar_png.32x32/data/cifar_32x32/trn_lmdb
I1025 19:28:11.772505 24854 data_layer.cpp:41] output data size: 120,3,32,32
I1025 19:28:11.774888 24854 net.cpp:150] Setting up data
I1025 19:28:11.774932 24854 net.cpp:157] Top shape: 120 3 32 32 (368640)
I1025 19:28:11.774936 24854 net.cpp:157] Top shape: 120 (120)
I1025 19:28:11.774938 24854 net.cpp:165] Memory required for data: 1475040
I1025 19:28:11.774961 24854 layer_factory.hpp:77] Creating layer label_coarse_data_1_split
I1025 19:28:11.774969 24854 net.cpp:100] Creating Layer label_coarse_data_1_split
I1025 19:28:11.774974 24854 net.cpp:434] label_coarse_data_1_split <- label_coarse
I1025 19:28:11.774987 24854 net.cpp:408] label_coarse_data_1_split -> label_coarse_data_1_split_0
I1025 19:28:11.774994 24854 net.cpp:408] label_coarse_data_1_split -> label_coarse_data_1_split_1
I1025 19:28:11.775025 24854 net.cpp:150] Setting up label_coarse_data_1_split
I1025 19:28:11.775032 24854 net.cpp:157] Top shape: 120 (120)
I1025 19:28:11.775034 24854 net.cpp:157] Top shape: 120 (120)
I1025 19:28:11.775037 24854 net.cpp:165] Memory required for data: 1476000
I1025 19:28:11.775038 24854 layer_factory.hpp:77] Creating layer conv1
I1025 19:28:11.775049 24854 net.cpp:100] Creating Layer conv1
I1025 19:28:11.775053 24854 net.cpp:434] conv1 <- data
I1025 19:28:11.775070 24854 net.cpp:408] conv1 -> conv1
I1025 19:28:11.775955 24854 net.cpp:150] Setting up conv1
I1025 19:28:11.775976 24854 net.cpp:157] Top shape: 120 64 28 28 (6021120)
I1025 19:28:11.775977 24854 net.cpp:165] Memory required for data: 25560480
I1025 19:28:11.776007 24854 layer_factory.hpp:77] Creating layer cccp1a
I1025 19:28:11.776015 24854 net.cpp:100] Creating Layer cccp1a
I1025 19:28:11.776016 24854 net.cpp:434] cccp1a <- conv1
I1025 19:28:11.776023 24854 net.cpp:408] cccp1a -> cccp1a
I1025 19:28:11.776347 24854 net.cpp:150] Setting up cccp1a
I1025 19:28:11.776352 24854 net.cpp:157] Top shape: 120 42 28 28 (3951360)
I1025 19:28:11.776353 24854 net.cpp:165] Memory required for data: 41365920
I1025 19:28:11.776373 24854 layer_factory.hpp:77] Creating layer relu1a
I1025 19:28:11.776379 24854 net.cpp:100] Creating Layer relu1a
I1025 19:28:11.776381 24854 net.cpp:434] relu1a <- cccp1a
I1025 19:28:11.776384 24854 net.cpp:395] relu1a -> cccp1a (in-place)
I1025 19:28:11.776402 24854 net.cpp:150] Setting up relu1a
I1025 19:28:11.776406 24854 net.cpp:157] Top shape: 120 42 28 28 (3951360)
I1025 19:28:11.776422 24854 net.cpp:165] Memory required for data: 57171360
I1025 19:28:11.776423 24854 layer_factory.hpp:77] Creating layer cccp1b
I1025 19:28:11.776428 24854 net.cpp:100] Creating Layer cccp1b
I1025 19:28:11.776444 24854 net.cpp:434] cccp1b <- cccp1a
I1025 19:28:11.776448 24854 net.cpp:408] cccp1b -> cccp1b
I1025 19:28:11.776602 24854 net.cpp:150] Setting up cccp1b
I1025 19:28:11.776607 24854 net.cpp:157] Top shape: 120 42 28 28 (3951360)
I1025 19:28:11.776609 24854 net.cpp:165] Memory required for data: 72976800
I1025 19:28:11.776614 24854 layer_factory.hpp:77] Creating layer pool1
I1025 19:28:11.776620 24854 net.cpp:100] Creating Layer pool1
I1025 19:28:11.776623 24854 net.cpp:434] pool1 <- cccp1b
I1025 19:28:11.776625 24854 net.cpp:408] pool1 -> pool1
I1025 19:28:11.776655 24854 net.cpp:150] Setting up pool1
I1025 19:28:11.776659 24854 net.cpp:157] Top shape: 120 42 14 14 (987840)
I1025 19:28:11.776660 24854 net.cpp:165] Memory required for data: 76928160
I1025 19:28:11.776677 24854 layer_factory.hpp:77] Creating layer relu1b
I1025 19:28:11.776682 24854 net.cpp:100] Creating Layer relu1b
I1025 19:28:11.776684 24854 net.cpp:434] relu1b <- pool1
I1025 19:28:11.776686 24854 net.cpp:395] relu1b -> pool1 (in-place)
I1025 19:28:11.776690 24854 net.cpp:150] Setting up relu1b
I1025 19:28:11.776693 24854 net.cpp:157] Top shape: 120 42 14 14 (987840)
I1025 19:28:11.776695 24854 net.cpp:165] Memory required for data: 80879520
I1025 19:28:11.776696 24854 layer_factory.hpp:77] Creating layer conv2
I1025 19:28:11.776705 24854 net.cpp:100] Creating Layer conv2
I1025 19:28:11.776707 24854 net.cpp:434] conv2 <- pool1
I1025 19:28:11.776710 24854 net.cpp:408] conv2 -> conv2
I1025 19:28:11.777307 24854 net.cpp:150] Setting up conv2
I1025 19:28:11.777313 24854 net.cpp:157] Top shape: 120 64 12 12 (1105920)
I1025 19:28:11.777315 24854 net.cpp:165] Memory required for data: 85303200
I1025 19:28:11.777333 24854 layer_factory.hpp:77] Creating layer pool2
I1025 19:28:11.777338 24854 net.cpp:100] Creating Layer pool2
I1025 19:28:11.777341 24854 net.cpp:434] pool2 <- conv2
I1025 19:28:11.777344 24854 net.cpp:408] pool2 -> pool2
I1025 19:28:11.777380 24854 net.cpp:150] Setting up pool2
I1025 19:28:11.777384 24854 net.cpp:157] Top shape: 120 64 6 6 (276480)
I1025 19:28:11.777386 24854 net.cpp:165] Memory required for data: 86409120
I1025 19:28:11.777389 24854 layer_factory.hpp:77] Creating layer relu2
I1025 19:28:11.777391 24854 net.cpp:100] Creating Layer relu2
I1025 19:28:11.777392 24854 net.cpp:434] relu2 <- pool2
I1025 19:28:11.777395 24854 net.cpp:395] relu2 -> pool2 (in-place)
I1025 19:28:11.777398 24854 net.cpp:150] Setting up relu2
I1025 19:28:11.777401 24854 net.cpp:157] Top shape: 120 64 6 6 (276480)
I1025 19:28:11.777402 24854 net.cpp:165] Memory required for data: 87515040
I1025 19:28:11.777405 24854 layer_factory.hpp:77] Creating layer conv3
I1025 19:28:11.777410 24854 net.cpp:100] Creating Layer conv3
I1025 19:28:11.777412 24854 net.cpp:434] conv3 <- pool2
I1025 19:28:11.777416 24854 net.cpp:408] conv3 -> conv3
I1025 19:28:11.778280 24854 net.cpp:150] Setting up conv3
I1025 19:28:11.778286 24854 net.cpp:157] Top shape: 120 128 4 4 (245760)
I1025 19:28:11.778288 24854 net.cpp:165] Memory required for data: 88498080
I1025 19:28:11.778293 24854 layer_factory.hpp:77] Creating layer pool3
I1025 19:28:11.778311 24854 net.cpp:100] Creating Layer pool3
I1025 19:28:11.778314 24854 net.cpp:434] pool3 <- conv3
I1025 19:28:11.778317 24854 net.cpp:408] pool3 -> pool3
I1025 19:28:11.778340 24854 net.cpp:150] Setting up pool3
I1025 19:28:11.778344 24854 net.cpp:157] Top shape: 120 128 2 2 (61440)
I1025 19:28:11.778347 24854 net.cpp:165] Memory required for data: 88743840
I1025 19:28:11.778348 24854 layer_factory.hpp:77] Creating layer relu3
I1025 19:28:11.778352 24854 net.cpp:100] Creating Layer relu3
I1025 19:28:11.778352 24854 net.cpp:434] relu3 <- pool3
I1025 19:28:11.778357 24854 net.cpp:395] relu3 -> pool3 (in-place)
I1025 19:28:11.778359 24854 net.cpp:150] Setting up relu3
I1025 19:28:11.778363 24854 net.cpp:157] Top shape: 120 128 2 2 (61440)
I1025 19:28:11.778364 24854 net.cpp:165] Memory required for data: 88989600
I1025 19:28:11.778367 24854 layer_factory.hpp:77] Creating layer conv_last
I1025 19:28:11.778372 24854 net.cpp:100] Creating Layer conv_last
I1025 19:28:11.778374 24854 net.cpp:434] conv_last <- pool3
I1025 19:28:11.778378 24854 net.cpp:408] conv_last -> conv_last
I1025 19:28:11.778723 24854 net.cpp:150] Setting up conv_last
I1025 19:28:11.778726 24854 net.cpp:157] Top shape: 120 256 2 2 (122880)
I1025 19:28:11.778728 24854 net.cpp:165] Memory required for data: 89481120
I1025 19:28:11.778731 24854 layer_factory.hpp:77] Creating layer relu_last
I1025 19:28:11.778735 24854 net.cpp:100] Creating Layer relu_last
I1025 19:28:11.778738 24854 net.cpp:434] relu_last <- conv_last
I1025 19:28:11.778741 24854 net.cpp:395] relu_last -> conv_last (in-place)
I1025 19:28:11.778750 24854 net.cpp:150] Setting up relu_last
I1025 19:28:11.778753 24854 net.cpp:157] Top shape: 120 256 2 2 (122880)
I1025 19:28:11.778779 24854 net.cpp:165] Memory required for data: 89972640
I1025 19:28:11.778781 24854 layer_factory.hpp:77] Creating layer fc_coarse
I1025 19:28:11.778787 24854 net.cpp:100] Creating Layer fc_coarse
I1025 19:28:11.778789 24854 net.cpp:434] fc_coarse <- conv_last
I1025 19:28:11.778794 24854 net.cpp:408] fc_coarse -> fc_coarse
I1025 19:28:11.778982 24854 net.cpp:150] Setting up fc_coarse
I1025 19:28:11.778986 24854 net.cpp:157] Top shape: 120 20 (2400)
I1025 19:28:11.778987 24854 net.cpp:165] Memory required for data: 89982240
I1025 19:28:11.778991 24854 layer_factory.hpp:77] Creating layer fc_coarse_fc_coarse_0_split
I1025 19:28:11.778995 24854 net.cpp:100] Creating Layer fc_coarse_fc_coarse_0_split
I1025 19:28:11.778997 24854 net.cpp:434] fc_coarse_fc_coarse_0_split <- fc_coarse
I1025 19:28:11.779001 24854 net.cpp:408] fc_coarse_fc_coarse_0_split -> fc_coarse_fc_coarse_0_split_0
I1025 19:28:11.779007 24854 net.cpp:408] fc_coarse_fc_coarse_0_split -> fc_coarse_fc_coarse_0_split_1
I1025 19:28:11.779031 24854 net.cpp:150] Setting up fc_coarse_fc_coarse_0_split
I1025 19:28:11.779033 24854 net.cpp:157] Top shape: 120 20 (2400)
I1025 19:28:11.779036 24854 net.cpp:157] Top shape: 120 20 (2400)
I1025 19:28:11.779037 24854 net.cpp:165] Memory required for data: 90001440
I1025 19:28:11.779039 24854 layer_factory.hpp:77] Creating layer accuracy_coarse
I1025 19:28:11.779042 24854 net.cpp:100] Creating Layer accuracy_coarse
I1025 19:28:11.779045 24854 net.cpp:434] accuracy_coarse <- fc_coarse_fc_coarse_0_split_0
I1025 19:28:11.779048 24854 net.cpp:434] accuracy_coarse <- label_coarse_data_1_split_0
…
