…
I1024 12:41:03.683023  2086 solver.cpp:81] Creating training net from train_net file: dvia_train.prototxt
I1024 12:41:03.683609  2086 net.cpp:58] Initializing net from parameters: 
state {
  phase: TRAIN
}
layer {
  name: "data"
  type: "Data"
  top: "data"
  top: "label"
  transform_param {
    scale: 0.00390625
    mirror: true
    mean_file: "/home/maheriya/Projects/IMAGES/dvia/png.32x32/data/dvia_32x32/trn_mean.binaryproto"
  }
  data_param {
    source: "/home/maheriya/Projects/IMAGES/dvia/png.32x32/data/dvia_32x32/trn_lmdb"
    batch_size: 120
    backend: LMDB
  }
}
layer {
  name: "conv1"
  type: "Convolution"
  bottom: "data"
  top: "conv1"
  param {
    lr_mult: 0.2
    decay_mult: 0.2
  }
  param {
    lr_mult: 0.4
    decay_mult: 0
  }
  convolution_param {
    num_output: 48
    kernel_size: 3
    stride: 1
    weight_filler {
      type: "xavier"
    }
  }
}
layer {
  name: "relu1"
  type: "ReLU"
  bottom: "conv1"
  top: "conv1"
}
layer {
  name: "cccp1a"
  type: "Convolution"
  bottom: "conv1"
  top: "cccp1a"
  param {
    lr_mult: 0.2
    decay_mult: 0.2
  }
  param {
    lr_mult: 0.4
    decay_mult: 0
  }
  convolution_param {
    num_output: 48
    kernel_size: 1
    stride: 1
    weight_filler {
      type: "xavier"
    }
  }
}
layer {
  name: "relu1a"
  type: "ReLU"
  bottom: "cccp1a"
  top: "cccp1a"
}
layer {
  name: "cccp1b"
  type: "Convolution"
  bottom: "cccp1a"
  top: "cccp1b"
  param {
    lr_mult: 0.2
    decay_mult: 0.2
  }
  param {
    lr_mult: 0.4
    decay_mult: 0
  }
  convolution_param {
    num_output: 48
    kernel_size: 1
    stride: 1
    weight_filler {
      type: "xavier"
    }
  }
}
layer {
  name: "pool1"
  type: "Pooling"
  bottom: "cccp1b"
  top: "pool1"
  pooling_param {
    pool: MAX
    kernel_size: 2
    stride: 2
  }
}
layer {
  name: "relu1b"
  type: "ReLU"
  bottom: "pool1"
  top: "pool1"
}
layer {
  name: "conv2"
  type: "Convolution"
  bottom: "pool1"
  top: "conv2"
  param {
    lr_mult: 1
    decay_mult: 1
  }
  param {
    lr_mult: 2
    decay_mult: 0
  }
  convolution_param {
    num_output: 96
    kernel_size: 3
    stride: 1
    weight_filler {
      type: "xavier"
    }
  }
}
layer {
  name: "pool2"
  type: "Pooling"
  bottom: "conv2"
  top: "pool2"
  pooling_param {
    pool: MAX
    kernel_size: 2
    stride: 2
  }
}
layer {
  name: "relu2"
  type: "ReLU"
  bottom: "pool2"
  top: "pool2"
}
layer {
  name: "conv3"
  type: "Convolution"
  bottom: "pool2"
  top: "conv3"
  param {
    lr_mult: 1
    decay_mult: 1
  }
  param {
    lr_mult: 2
    decay_mult: 0
  }
  convolution_param {
    num_output: 192
    kernel_size: 3
    stride: 1
    weight_filler {
      type: "xavier"
    }
  }
}
layer {
  name: "pool3"
  type: "Pooling"
  bottom: "conv3"
  top: "pool3"
  pooling_param {
    pool: MAX
    kernel_size: 2
    stride: 2
  }
}
layer {
  name: "relu3"
  type: "ReLU"
  bottom: "pool3"
  top: "pool3"
}
layer {
  name: "conv_last"
  type: "Convolution"
  bottom: "pool3"
  top: "conv_last"
  param {
    lr_mult: 1
    decay_mult: 1
  }
  param {
    lr_mult: 2
    decay_mult: 0
  }
  convolution_param {
    num_output: 384
    kernel_size: 1
    stride: 1
    weight_filler {
      type: "xavier"
    }
  }
}
layer {
  name: "relu_last"
  type: "ReLU"
  bottom: "conv_last"
  top: "conv_last"
}
layer {
  name: "fc_class"
  type: "InnerProduct"
  bottom: "conv_last"
  top: "fc_class"
  param {
    lr_mult: 1
    decay_mult: 1
  }
  param {
    lr_mult: 2
    decay_mult: 0
  }
  inner_product_param {
    num_output: 4
    weight_filler {
      type: "xavier"
    }
  }
}
layer {
  name: "accuracy_class"
  type: "Accuracy"
  bottom: "fc_class"
  bottom: "label"
  top: "accuracy_class"
}
layer {
  name: "loss_class"
  type: "SoftmaxWithLoss"
  bottom: "fc_class"
  bottom: "label"
  top: "loss_class"
}
I1024 12:41:03.683676  2086 layer_factory.hpp:77] Creating layer data
I1024 12:41:03.684726  2086 net.cpp:100] Creating Layer data
I1024 12:41:03.684736  2086 net.cpp:408] data -> data
I1024 12:41:03.684744  2086 net.cpp:408] data -> label
I1024 12:41:03.684751  2086 data_transformer.cpp:25] Loading mean file from: /home/maheriya/Projects/IMAGES/dvia/png.32x32/data/dvia_32x32/trn_mean.binaryproto
I1024 12:41:03.687074  2125 db_lmdb.cpp:35] Opened lmdb /home/maheriya/Projects/IMAGES/dvia/png.32x32/data/dvia_32x32/trn_lmdb
I1024 12:41:03.707576  2086 data_layer.cpp:41] output data size: 120,3,32,32
I1024 12:41:03.710079  2086 net.cpp:150] Setting up data
I1024 12:41:03.710093  2086 net.cpp:157] Top shape: 120 3 32 32 (368640)
I1024 12:41:03.710098  2086 net.cpp:157] Top shape: 120 (120)
I1024 12:41:03.710099  2086 net.cpp:165] Memory required for data: 1475040
I1024 12:41:03.710104  2086 layer_factory.hpp:77] Creating layer label_data_1_split
I1024 12:41:03.710113  2086 net.cpp:100] Creating Layer label_data_1_split
I1024 12:41:03.710115  2086 net.cpp:434] label_data_1_split <- label
I1024 12:41:03.710121  2086 net.cpp:408] label_data_1_split -> label_data_1_split_0
I1024 12:41:03.710129  2086 net.cpp:408] label_data_1_split -> label_data_1_split_1
I1024 12:41:03.710214  2086 net.cpp:150] Setting up label_data_1_split
I1024 12:41:03.710223  2086 net.cpp:157] Top shape: 120 (120)
I1024 12:41:03.710227  2086 net.cpp:157] Top shape: 120 (120)
I1024 12:41:03.710228  2086 net.cpp:165] Memory required for data: 1476000
I1024 12:41:03.710230  2086 layer_factory.hpp:77] Creating layer conv1
I1024 12:41:03.710268  2086 net.cpp:100] Creating Layer conv1
I1024 12:41:03.710271  2086 net.cpp:434] conv1 <- data
I1024 12:41:03.710275  2086 net.cpp:408] conv1 -> conv1
I1024 12:41:03.710929  2086 net.cpp:150] Setting up conv1
I1024 12:41:03.710940  2086 net.cpp:157] Top shape: 120 48 30 30 (5184000)
I1024 12:41:03.710942  2086 net.cpp:165] Memory required for data: 22212000
I1024 12:41:03.710950  2086 layer_factory.hpp:77] Creating layer relu1
I1024 12:41:03.710955  2086 net.cpp:100] Creating Layer relu1
I1024 12:41:03.710958  2086 net.cpp:434] relu1 <- conv1
I1024 12:41:03.710961  2086 net.cpp:395] relu1 -> conv1 (in-place)
I1024 12:41:03.710966  2086 net.cpp:150] Setting up relu1
I1024 12:41:03.710970  2086 net.cpp:157] Top shape: 120 48 30 30 (5184000)
I1024 12:41:03.710971  2086 net.cpp:165] Memory required for data: 42948000
I1024 12:41:03.710973  2086 layer_factory.hpp:77] Creating layer cccp1a
I1024 12:41:03.710980  2086 net.cpp:100] Creating Layer cccp1a
I1024 12:41:03.710983  2086 net.cpp:434] cccp1a <- conv1
I1024 12:41:03.710985  2086 net.cpp:408] cccp1a -> cccp1a
I1024 12:41:03.711344  2086 net.cpp:150] Setting up cccp1a
I1024 12:41:03.711369  2086 net.cpp:157] Top shape: 120 48 30 30 (5184000)
I1024 12:41:03.711380  2086 net.cpp:165] Memory required for data: 63684000
I1024 12:41:03.711393  2086 layer_factory.hpp:77] Creating layer relu1a
I1024 12:41:03.711406  2086 net.cpp:100] Creating Layer relu1a
I1024 12:41:03.711414  2086 net.cpp:434] relu1a <- cccp1a
I1024 12:41:03.711424  2086 net.cpp:395] relu1a -> cccp1a (in-place)
I1024 12:41:03.711436  2086 net.cpp:150] Setting up relu1a
I1024 12:41:03.711446  2086 net.cpp:157] Top shape: 120 48 30 30 (5184000)
I1024 12:41:03.711452  2086 net.cpp:165] Memory required for data: 84420000
I1024 12:41:03.711460  2086 layer_factory.hpp:77] Creating layer cccp1b
I1024 12:41:03.711472  2086 net.cpp:100] Creating Layer cccp1b
I1024 12:41:03.711482  2086 net.cpp:434] cccp1b <- cccp1a
I1024 12:41:03.711491  2086 net.cpp:408] cccp1b -> cccp1b
I1024 12:41:03.711683  2086 net.cpp:150] Setting up cccp1b
I1024 12:41:03.711688  2086 net.cpp:157] Top shape: 120 48 30 30 (5184000)
I1024 12:41:03.711690  2086 net.cpp:165] Memory required for data: 105156000
I1024 12:41:03.711696  2086 layer_factory.hpp:77] Creating layer pool1
I1024 12:41:03.711701  2086 net.cpp:100] Creating Layer pool1
I1024 12:41:03.711704  2086 net.cpp:434] pool1 <- cccp1b
I1024 12:41:03.711707  2086 net.cpp:408] pool1 -> pool1
I1024 12:41:03.711743  2086 net.cpp:150] Setting up pool1
I1024 12:41:03.711746  2086 net.cpp:157] Top shape: 120 48 15 15 (1296000)
I1024 12:41:03.711747  2086 net.cpp:165] Memory required for data: 110340000
I1024 12:41:03.711750  2086 layer_factory.hpp:77] Creating layer relu1b
I1024 12:41:03.711755  2086 net.cpp:100] Creating Layer relu1b
I1024 12:41:03.711756  2086 net.cpp:434] relu1b <- pool1
I1024 12:41:03.711758  2086 net.cpp:395] relu1b -> pool1 (in-place)
I1024 12:41:03.711762  2086 net.cpp:150] Setting up relu1b
I1024 12:41:03.711765  2086 net.cpp:157] Top shape: 120 48 15 15 (1296000)
I1024 12:41:03.711766  2086 net.cpp:165] Memory required for data: 115524000
I1024 12:41:03.711767  2086 layer_factory.hpp:77] Creating layer conv2
I1024 12:41:03.711786  2086 net.cpp:100] Creating Layer conv2
I1024 12:41:03.711786  2086 net.cpp:434] conv2 <- pool1
I1024 12:41:03.711792  2086 net.cpp:408] conv2 -> conv2
I1024 12:41:03.712543  2086 net.cpp:150] Setting up conv2
I1024 12:41:03.712549  2086 net.cpp:157] Top shape: 120 96 13 13 (1946880)
I1024 12:41:03.712551  2086 net.cpp:165] Memory required for data: 123311520
I1024 12:41:03.712555  2086 layer_factory.hpp:77] Creating layer pool2
I1024 12:41:03.712559  2086 net.cpp:100] Creating Layer pool2
I1024 12:41:03.712563  2086 net.cpp:434] pool2 <- conv2
I1024 12:41:03.712566  2086 net.cpp:408] pool2 -> pool2
I1024 12:41:03.712600  2086 net.cpp:150] Setting up pool2
I1024 12:41:03.712604  2086 net.cpp:157] Top shape: 120 96 7 7 (564480)
I1024 12:41:03.712605  2086 net.cpp:165] Memory required for data: 125569440
I1024 12:41:03.712607  2086 layer_factory.hpp:77] Creating layer relu2
I1024 12:41:03.712610  2086 net.cpp:100] Creating Layer relu2
I1024 12:41:03.712612  2086 net.cpp:434] relu2 <- pool2
I1024 12:41:03.712615  2086 net.cpp:395] relu2 -> pool2 (in-place)
I1024 12:41:03.712631  2086 net.cpp:150] Setting up relu2
I1024 12:41:03.712633  2086 net.cpp:157] Top shape: 120 96 7 7 (564480)
I1024 12:41:03.712635  2086 net.cpp:165] Memory required for data: 127827360
I1024 12:41:03.712637  2086 layer_factory.hpp:77] Creating layer conv3
I1024 12:41:03.712654  2086 net.cpp:100] Creating Layer conv3
I1024 12:41:03.712656  2086 net.cpp:434] conv3 <- pool2
I1024 12:41:03.712661  2086 net.cpp:408] conv3 -> conv3
I1024 12:41:03.714215  2086 net.cpp:150] Setting up conv3
I1024 12:41:03.714221  2086 net.cpp:157] Top shape: 120 192 5 5 (576000)
I1024 12:41:03.714223  2086 net.cpp:165] Memory required for data: 130131360
I1024 12:41:03.714229  2086 layer_factory.hpp:77] Creating layer pool3
I1024 12:41:03.714234  2086 net.cpp:100] Creating Layer pool3
I1024 12:41:03.714236  2086 net.cpp:434] pool3 <- conv3
I1024 12:41:03.714241  2086 net.cpp:408] pool3 -> pool3
I1024 12:41:03.714265  2086 net.cpp:150] Setting up pool3
I1024 12:41:03.714268  2086 net.cpp:157] Top shape: 120 192 3 3 (207360)
I1024 12:41:03.714287  2086 net.cpp:165] Memory required for data: 130960800
I1024 12:41:03.714288  2086 layer_factory.hpp:77] Creating layer relu3
I1024 12:41:03.714293  2086 net.cpp:100] Creating Layer relu3
I1024 12:41:03.714294  2086 net.cpp:434] relu3 <- pool3
I1024 12:41:03.714310  2086 net.cpp:395] relu3 -> pool3 (in-place)
I1024 12:41:03.714313  2086 net.cpp:150] Setting up relu3
I1024 12:41:03.714316  2086 net.cpp:157] Top shape: 120 192 3 3 (207360)
I1024 12:41:03.714318  2086 net.cpp:165] Memory required for data: 131790240
I1024 12:41:03.714320  2086 layer_factory.hpp:77] Creating layer conv_last
I1024 12:41:03.714339  2086 net.cpp:100] Creating Layer conv_last
I1024 12:41:03.714340  2086 net.cpp:434] conv_last <- pool3
I1024 12:41:03.714344  2086 net.cpp:408] conv_last -> conv_last
I1024 12:41:03.714970  2086 net.cpp:150] Setting up conv_last
I1024 12:41:03.714975  2086 net.cpp:157] Top shape: 120 384 3 3 (414720)
I1024 12:41:03.714977  2086 net.cpp:165] Memory required for data: 133449120
I1024 12:41:03.714980  2086 layer_factory.hpp:77] Creating layer relu_last
I1024 12:41:03.714987  2086 net.cpp:100] Creating Layer relu_last
I1024 12:41:03.714988  2086 net.cpp:434] relu_last <- conv_last
I1024 12:41:03.714990  2086 net.cpp:395] relu_last -> conv_last (in-place)
I1024 12:41:03.714995  2086 net.cpp:150] Setting up relu_last
I1024 12:41:03.714998  2086 net.cpp:157] Top shape: 120 384 3 3 (414720)
I1024 12:41:03.715000  2086 net.cpp:165] Memory required for data: 135108000
I1024 12:41:03.715001  2086 layer_factory.hpp:77] Creating layer fc_class
I1024 12:41:03.715019  2086 net.cpp:100] Creating Layer fc_class
I1024 12:41:03.715023  2086 net.cpp:434] fc_class <- conv_last
I1024 12:41:03.715025  2086 net.cpp:408] fc_class -> fc_class
I1024 12:41:03.715550  2086 net.cpp:150] Setting up fc_class
I1024 12:41:03.715556  2086 net.cpp:157] Top shape: 120 4 (480)
I1024 12:41:03.715559  2086 net.cpp:165] Memory required for data: 135109920
I1024 12:41:03.715561  2086 layer_factory.hpp:77] Creating layer fc_class_fc_class_0_split
I1024 12:41:03.715566  2086 net.cpp:100] Creating Layer fc_class_fc_class_0_split
I1024 12:41:03.715569  2086 net.cpp:434] fc_class_fc_class_0_split <- fc_class
I1024 12:41:03.715574  2086 net.cpp:408] fc_class_fc_class_0_split -> fc_class_fc_class_0_split_0
I1024 12:41:03.715577  2086 net.cpp:408] fc_class_fc_class_0_split -> fc_class_fc_class_0_split_1
I1024 12:41:03.715600  2086 net.cpp:150] Setting up fc_class_fc_class_0_split
I1024 12:41:03.715603  2086 net.cpp:157] Top shape: 120 4 (480)
I1024 12:41:03.715605  2086 net.cpp:157] Top shape: 120 4 (480)
I1024 12:41:03.715607  2086 net.cpp:165] Memory required for data: 135113760
I1024 12:41:03.715610  2086 layer_factory.hpp:77] Creating layer accuracy_class
I1024 12:41:03.715612  2086 net.cpp:100] Creating Layer accuracy_class
I1024 12:41:03.715628  2086 net.cpp:434] accuracy_class <- fc_class_fc_class_0_split_0
I1024 12:41:03.715631  2086 net.cpp:434] accuracy_class <- label_data_1_split_0
…
I1024 12:41:03.959306  2131 solver.cpp:81] Creating training net from train_net file: dvia_pretrain.prototxt
I1024 12:41:03.959646  2131 net.cpp:58] Initializing net from parameters: 
state {
  phase: TRAIN
  level: 0
  stage: ""
}
layer {
  name: "data"
  type: "Data"
  top: "data"
  top: "label_coarse"
  transform_param {
    scale: 0.00390625
    mirror: true
    mean_file: "/home/maheriya/Projects/IMAGES/dvia/cifar_png.32x32/data/cifar_32x32/trn_mean.binaryproto"
  }
  data_param {
    source: "/home/maheriya/Projects/IMAGES/dvia/cifar_png.32x32/data/cifar_32x32/trn_lmdb"
    batch_size: 120
    backend: LMDB
  }
}
layer {
  name: "conv1"
  type: "Convolution"
  bottom: "data"
  top: "conv1"
  param {
    lr_mult: 1
    decay_mult: 1
  }
  param {
    lr_mult: 2
    decay_mult: 0
  }
  convolution_param {
    num_output: 48
    kernel_size: 3
    stride: 1
    weight_filler {
      type: "xavier"
    }
  }
}
layer {
  name: "relu1"
  type: "ReLU"
  bottom: "conv1"
  top: "conv1"
}
layer {
  name: "cccp1a"
  type: "Convolution"
  bottom: "conv1"
  top: "cccp1a"
  param {
    lr_mult: 1
    decay_mult: 1
  }
  param {
    lr_mult: 2
    decay_mult: 0
  }
  convolution_param {
    num_output: 48
    kernel_size: 1
    stride: 1
    weight_filler {
      type: "xavier"
    }
  }
}
layer {
  name: "relu1a"
  type: "ReLU"
  bottom: "cccp1a"
  top: "cccp1a"
}
layer {
  name: "cccp1b"
  type: "Convolution"
  bottom: "cccp1a"
  top: "cccp1b"
  param {
    lr_mult: 1
    decay_mult: 1
  }
  param {
    lr_mult: 2
    decay_mult: 0
  }
  convolution_param {
    num_output: 48
    kernel_size: 1
    stride: 1
    weight_filler {
      type: "xavier"
    }
  }
}
layer {
  name: "pool1"
  type: "Pooling"
  bottom: "cccp1b"
  top: "pool1"
  pooling_param {
    pool: MAX
    kernel_size: 2
    stride: 2
  }
}
layer {
  name: "relu1b"
  type: "ReLU"
  bottom: "pool1"
  top: "pool1"
}
layer {
  name: "conv2"
  type: "Convolution"
  bottom: "pool1"
  top: "conv2"
  param {
    lr_mult: 1
    decay_mult: 1
  }
  param {
    lr_mult: 2
    decay_mult: 0
  }
  convolution_param {
    num_output: 96
    kernel_size: 3
    stride: 1
    weight_filler {
      type: "xavier"
    }
  }
}
layer {
  name: "pool2"
  type: "Pooling"
  bottom: "conv2"
  top: "pool2"
  pooling_param {
    pool: MAX
    kernel_size: 2
    stride: 2
  }
}
layer {
  name: "relu2"
  type: "ReLU"
  bottom: "pool2"
  top: "pool2"
}
layer {
  name: "conv3"
  type: "Convolution"
  bottom: "pool2"
  top: "conv3"
  param {
    lr_mult: 1
    decay_mult: 1
  }
  param {
    lr_mult: 2
    decay_mult: 0
  }
  convolution_param {
    num_output: 192
    kernel_size: 3
    stride: 1
    weight_filler {
      type: "xavier"
    }
  }
}
layer {
  name: "pool3"
  type: "Pooling"
  bottom: "conv3"
  top: "pool3"
  pooling_param {
    pool: MAX
    kernel_size: 2
    stride: 2
  }
}
layer {
  name: "relu3"
  type: "ReLU"
  bottom: "pool3"
  top: "pool3"
}
layer {
  name: "conv_last"
  type: "Convolution"
  bottom: "pool3"
  top: "conv_last"
  param {
    lr_mult: 1
    decay_mult: 1
  }
  param {
    lr_mult: 2
    decay_mult: 0
  }
  convolution_param {
    num_output: 384
    kernel_size: 1
    stride: 1
    weight_filler {
      type: "xavier"
    }
  }
}
layer {
  name: "relu_last"
  type: "ReLU"
  bottom: "conv_last"
  top: "conv_last"
}
layer {
  name: "fc_coarse"
  type: "InnerProduct"
  bottom: "conv_last"
  top: "fc_coarse"
  param {
    lr_mult: 1
    decay_mult: 1
  }
  param {
    lr_mult: 2
    decay_mult: 0
  }
  inner_product_param {
    num_output: 20
    weight_filler {
      type: "xavier"
    }
  }
}
layer {
  name: "accuracy_coarse"
  type: "Accuracy"
  bottom: "fc_coarse"
  bottom: "label_coarse"
  top: "accuracy_coarse"
}
layer {
  name: "loss_coarse"
  type: "SoftmaxWithLoss"
  bottom: "fc_coarse"
  bottom: "label_coarse"
  top: "loss_coarse"
}
I1024 12:41:03.959831  2131 layer_factory.hpp:77] Creating layer data
I1024 12:41:03.960305  2131 net.cpp:100] Creating Layer data
I1024 12:41:03.960311  2131 net.cpp:408] data -> data
I1024 12:41:03.960341  2131 net.cpp:408] data -> label_coarse
I1024 12:41:03.960350  2131 data_transformer.cpp:25] Loading mean file from: /home/maheriya/Projects/IMAGES/dvia/cifar_png.32x32/data/cifar_32x32/trn_mean.binaryproto
I1024 12:41:03.963521  2135 db_lmdb.cpp:35] Opened lmdb /home/maheriya/Projects/IMAGES/dvia/cifar_png.32x32/data/cifar_32x32/trn_lmdb
I1024 12:41:03.973624  2131 data_layer.cpp:41] output data size: 120,3,32,32
I1024 12:41:03.975714  2131 net.cpp:150] Setting up data
I1024 12:41:03.975744  2131 net.cpp:157] Top shape: 120 3 32 32 (368640)
I1024 12:41:03.975759  2131 net.cpp:157] Top shape: 120 (120)
I1024 12:41:03.975760  2131 net.cpp:165] Memory required for data: 1475040
I1024 12:41:03.975785  2131 layer_factory.hpp:77] Creating layer label_coarse_data_1_split
I1024 12:41:03.975795  2131 net.cpp:100] Creating Layer label_coarse_data_1_split
I1024 12:41:03.975811  2131 net.cpp:434] label_coarse_data_1_split <- label_coarse
I1024 12:41:03.975838  2131 net.cpp:408] label_coarse_data_1_split -> label_coarse_data_1_split_0
I1024 12:41:03.975846  2131 net.cpp:408] label_coarse_data_1_split -> label_coarse_data_1_split_1
I1024 12:41:03.975901  2131 net.cpp:150] Setting up label_coarse_data_1_split
I1024 12:41:03.975906  2131 net.cpp:157] Top shape: 120 (120)
I1024 12:41:03.975908  2131 net.cpp:157] Top shape: 120 (120)
I1024 12:41:03.975910  2131 net.cpp:165] Memory required for data: 1476000
I1024 12:41:03.975913  2131 layer_factory.hpp:77] Creating layer conv1
I1024 12:41:03.975924  2131 net.cpp:100] Creating Layer conv1
I1024 12:41:03.975925  2131 net.cpp:434] conv1 <- data
I1024 12:41:03.975941  2131 net.cpp:408] conv1 -> conv1
I1024 12:41:03.976536  2131 net.cpp:150] Setting up conv1
I1024 12:41:03.976557  2131 net.cpp:157] Top shape: 120 48 30 30 (5184000)
I1024 12:41:03.976559  2131 net.cpp:165] Memory required for data: 22212000
I1024 12:41:03.976586  2131 layer_factory.hpp:77] Creating layer relu1
I1024 12:41:03.976609  2131 net.cpp:100] Creating Layer relu1
I1024 12:41:03.976613  2131 net.cpp:434] relu1 <- conv1
I1024 12:41:03.976616  2131 net.cpp:395] relu1 -> conv1 (in-place)
I1024 12:41:03.976620  2131 net.cpp:150] Setting up relu1
I1024 12:41:03.976624  2131 net.cpp:157] Top shape: 120 48 30 30 (5184000)
I1024 12:41:03.976626  2131 net.cpp:165] Memory required for data: 42948000
I1024 12:41:03.976629  2131 layer_factory.hpp:77] Creating layer cccp1a
I1024 12:41:03.976634  2131 net.cpp:100] Creating Layer cccp1a
I1024 12:41:03.976636  2131 net.cpp:434] cccp1a <- conv1
I1024 12:41:03.976640  2131 net.cpp:408] cccp1a -> cccp1a
I1024 12:41:03.976889  2131 net.cpp:150] Setting up cccp1a
I1024 12:41:03.976894  2131 net.cpp:157] Top shape: 120 48 30 30 (5184000)
I1024 12:41:03.976910  2131 net.cpp:165] Memory required for data: 63684000
I1024 12:41:03.976917  2131 layer_factory.hpp:77] Creating layer relu1a
I1024 12:41:03.976934  2131 net.cpp:100] Creating Layer relu1a
I1024 12:41:03.976936  2131 net.cpp:434] relu1a <- cccp1a
I1024 12:41:03.976940  2131 net.cpp:395] relu1a -> cccp1a (in-place)
I1024 12:41:03.976944  2131 net.cpp:150] Setting up relu1a
I1024 12:41:03.976948  2131 net.cpp:157] Top shape: 120 48 30 30 (5184000)
I1024 12:41:03.976948  2131 net.cpp:165] Memory required for data: 84420000
I1024 12:41:03.976950  2131 layer_factory.hpp:77] Creating layer cccp1b
I1024 12:41:03.976955  2131 net.cpp:100] Creating Layer cccp1b
I1024 12:41:03.976958  2131 net.cpp:434] cccp1b <- cccp1a
I1024 12:41:03.976963  2131 net.cpp:408] cccp1b -> cccp1b
I1024 12:41:03.977303  2131 net.cpp:150] Setting up cccp1b
I1024 12:41:03.977308  2131 net.cpp:157] Top shape: 120 48 30 30 (5184000)
I1024 12:41:03.977335  2131 net.cpp:165] Memory required for data: 105156000
I1024 12:41:03.977340  2131 layer_factory.hpp:77] Creating layer pool1
I1024 12:41:03.977360  2131 net.cpp:100] Creating Layer pool1
I1024 12:41:03.977361  2131 net.cpp:434] pool1 <- cccp1b
I1024 12:41:03.977365  2131 net.cpp:408] pool1 -> pool1
I1024 12:41:03.977407  2131 net.cpp:150] Setting up pool1
I1024 12:41:03.977411  2131 net.cpp:157] Top shape: 120 48 15 15 (1296000)
I1024 12:41:03.977413  2131 net.cpp:165] Memory required for data: 110340000
I1024 12:41:03.977416  2131 layer_factory.hpp:77] Creating layer relu1b
I1024 12:41:03.977419  2131 net.cpp:100] Creating Layer relu1b
I1024 12:41:03.977421  2131 net.cpp:434] relu1b <- pool1
I1024 12:41:03.977426  2131 net.cpp:395] relu1b -> pool1 (in-place)
I1024 12:41:03.977428  2131 net.cpp:150] Setting up relu1b
I1024 12:41:03.977432  2131 net.cpp:157] Top shape: 120 48 15 15 (1296000)
I1024 12:41:03.977433  2131 net.cpp:165] Memory required for data: 115524000
I1024 12:41:03.977435  2131 layer_factory.hpp:77] Creating layer conv2
I1024 12:41:03.977439  2131 net.cpp:100] Creating Layer conv2
I1024 12:41:03.977442  2131 net.cpp:434] conv2 <- pool1
I1024 12:41:03.977447  2131 net.cpp:408] conv2 -> conv2
I1024 12:41:03.978193  2131 net.cpp:150] Setting up conv2
I1024 12:41:03.978199  2131 net.cpp:157] Top shape: 120 96 13 13 (1946880)
I1024 12:41:03.978201  2131 net.cpp:165] Memory required for data: 123311520
I1024 12:41:03.978206  2131 layer_factory.hpp:77] Creating layer pool2
I1024 12:41:03.978211  2131 net.cpp:100] Creating Layer pool2
I1024 12:41:03.978214  2131 net.cpp:434] pool2 <- conv2
I1024 12:41:03.978217  2131 net.cpp:408] pool2 -> pool2
I1024 12:41:03.978240  2131 net.cpp:150] Setting up pool2
I1024 12:41:03.978243  2131 net.cpp:157] Top shape: 120 96 7 7 (564480)
I1024 12:41:03.978245  2131 net.cpp:165] Memory required for data: 125569440
I1024 12:41:03.978260  2131 layer_factory.hpp:77] Creating layer relu2
I1024 12:41:03.978263  2131 net.cpp:100] Creating Layer relu2
I1024 12:41:03.978266  2131 net.cpp:434] relu2 <- pool2
I1024 12:41:03.978267  2131 net.cpp:395] relu2 -> pool2 (in-place)
I1024 12:41:03.978286  2131 net.cpp:150] Setting up relu2
I1024 12:41:03.978288  2131 net.cpp:157] Top shape: 120 96 7 7 (564480)
I1024 12:41:03.978291  2131 net.cpp:165] Memory required for data: 127827360
I1024 12:41:03.978292  2131 layer_factory.hpp:77] Creating layer conv3
I1024 12:41:03.978310  2131 net.cpp:100] Creating Layer conv3
I1024 12:41:03.978313  2131 net.cpp:434] conv3 <- pool2
I1024 12:41:03.978317  2131 net.cpp:408] conv3 -> conv3
I1024 12:41:03.979811  2131 net.cpp:150] Setting up conv3
I1024 12:41:03.979818  2131 net.cpp:157] Top shape: 120 192 5 5 (576000)
I1024 12:41:03.979821  2131 net.cpp:165] Memory required for data: 130131360
I1024 12:41:03.979840  2131 layer_factory.hpp:77] Creating layer pool3
I1024 12:41:03.979845  2131 net.cpp:100] Creating Layer pool3
I1024 12:41:03.979846  2131 net.cpp:434] pool3 <- conv3
I1024 12:41:03.979851  2131 net.cpp:408] pool3 -> pool3
I1024 12:41:03.979873  2131 net.cpp:150] Setting up pool3
I1024 12:41:03.979877  2131 net.cpp:157] Top shape: 120 192 3 3 (207360)
I1024 12:41:03.979878  2131 net.cpp:165] Memory required for data: 130960800
I1024 12:41:03.979882  2131 layer_factory.hpp:77] Creating layer relu3
I1024 12:41:03.979884  2131 net.cpp:100] Creating Layer relu3
I1024 12:41:03.979887  2131 net.cpp:434] relu3 <- pool3
I1024 12:41:03.979903  2131 net.cpp:395] relu3 -> pool3 (in-place)
I1024 12:41:03.979907  2131 net.cpp:150] Setting up relu3
I1024 12:41:03.979909  2131 net.cpp:157] Top shape: 120 192 3 3 (207360)
I1024 12:41:03.979912  2131 net.cpp:165] Memory required for data: 131790240
I1024 12:41:03.979914  2131 layer_factory.hpp:77] Creating layer conv_last
I1024 12:41:03.979919  2131 net.cpp:100] Creating Layer conv_last
I1024 12:41:03.979921  2131 net.cpp:434] conv_last <- pool3
I1024 12:41:03.979928  2131 net.cpp:408] conv_last -> conv_last
I1024 12:41:03.980595  2131 net.cpp:150] Setting up conv_last
I1024 12:41:03.980609  2131 net.cpp:157] Top shape: 120 384 3 3 (414720)
I1024 12:41:03.980612  2131 net.cpp:165] Memory required for data: 133449120
I1024 12:41:03.980614  2131 layer_factory.hpp:77] Creating layer relu_last
I1024 12:41:03.980618  2131 net.cpp:100] Creating Layer relu_last
I1024 12:41:03.980621  2131 net.cpp:434] relu_last <- conv_last
I1024 12:41:03.980624  2131 net.cpp:395] relu_last -> conv_last (in-place)
I1024 12:41:03.980643  2131 net.cpp:150] Setting up relu_last
I1024 12:41:03.980648  2131 net.cpp:157] Top shape: 120 384 3 3 (414720)
I1024 12:41:03.980649  2131 net.cpp:165] Memory required for data: 135108000
I1024 12:41:03.980651  2131 layer_factory.hpp:77] Creating layer fc_coarse
I1024 12:41:03.980669  2131 net.cpp:100] Creating Layer fc_coarse
I1024 12:41:03.980670  2131 net.cpp:434] fc_coarse <- conv_last
I1024 12:41:03.980675  2131 net.cpp:408] fc_coarse -> fc_coarse
I1024 12:41:03.981550  2131 net.cpp:150] Setting up fc_coarse
I1024 12:41:03.981556  2131 net.cpp:157] Top shape: 120 20 (2400)
I1024 12:41:03.981559  2131 net.cpp:165] Memory required for data: 135117600
I1024 12:41:03.981562  2131 layer_factory.hpp:77] Creating layer fc_coarse_fc_coarse_0_split
I1024 12:41:03.981567  2131 net.cpp:100] Creating Layer fc_coarse_fc_coarse_0_split
I1024 12:41:03.981569  2131 net.cpp:434] fc_coarse_fc_coarse_0_split <- fc_coarse
I1024 12:41:03.981573  2131 net.cpp:408] fc_coarse_fc_coarse_0_split -> fc_coarse_fc_coarse_0_split_0
I1024 12:41:03.981578  2131 net.cpp:408] fc_coarse_fc_coarse_0_split -> fc_coarse_fc_coarse_0_split_1
I1024 12:41:03.981602  2131 net.cpp:150] Setting up fc_coarse_fc_coarse_0_split
I1024 12:41:03.981606  2131 net.cpp:157] Top shape: 120 20 (2400)
I1024 12:41:03.981607  2131 net.cpp:157] Top shape: 120 20 (2400)
I1024 12:41:03.981609  2131 net.cpp:165] Memory required for data: 135136800
I1024 12:41:03.981611  2131 layer_factory.hpp:77] Creating layer accuracy_coarse
I1024 12:41:03.981616  2131 net.cpp:100] Creating Layer accuracy_coarse
I1024 12:41:03.981618  2131 net.cpp:434] accuracy_coarse <- fc_coarse_fc_coarse_0_split_0
I1024 12:41:03.981621  2131 net.cpp:434] accuracy_coarse <- label_coarse_data_1_split_0
…
