…
I1025 10:19:44.454550  8208 solver.cpp:81] Creating training net from train_net file: dvia_train.prototxt
I1025 10:19:44.454874  8208 net.cpp:58] Initializing net from parameters: 
state {
  phase: TRAIN
}
layer {
  name: "data"
  type: "Data"
  top: "data"
  top: "label"
  transform_param {
    scale: 0.00390625
    mirror: true
    mean_file: "/home/maheriya/Projects/IMAGES/dvia/png.32x32/data/dvia_32x32/trn_mean.binaryproto"
  }
  data_param {
    source: "/home/maheriya/Projects/IMAGES/dvia/png.32x32/data/dvia_32x32/trn_lmdb"
    batch_size: 120
    backend: LMDB
  }
}
layer {
  name: "conv1"
  type: "Convolution"
  bottom: "data"
  top: "conv1"
  param {
    lr_mult: 0.1
    decay_mult: 0.1
  }
  param {
    lr_mult: 0.2
    decay_mult: 0
  }
  convolution_param {
    num_output: 64
    kernel_size: 4
    stride: 1
    weight_filler {
      type: "xavier"
    }
  }
}
layer {
  name: "cccp1a"
  type: "Convolution"
  bottom: "conv1"
  top: "cccp1a"
  param {
    lr_mult: 0.1
    decay_mult: 0.1
  }
  param {
    lr_mult: 0.2
    decay_mult: 0
  }
  convolution_param {
    num_output: 42
    kernel_size: 1
    stride: 1
    weight_filler {
      type: "xavier"
    }
  }
}
layer {
  name: "relu1a"
  type: "ReLU"
  bottom: "cccp1a"
  top: "cccp1a"
}
layer {
  name: "cccp1b"
  type: "Convolution"
  bottom: "cccp1a"
  top: "cccp1b"
  param {
    lr_mult: 0.1
    decay_mult: 0.1
  }
  param {
    lr_mult: 0.2
    decay_mult: 0
  }
  convolution_param {
    num_output: 32
    kernel_size: 1
    stride: 1
    weight_filler {
      type: "xavier"
    }
  }
}
layer {
  name: "pool1"
  type: "Pooling"
  bottom: "cccp1b"
  top: "pool1"
  pooling_param {
    pool: MAX
    kernel_size: 3
    stride: 2
  }
}
layer {
  name: "relu1b"
  type: "ReLU"
  bottom: "pool1"
  top: "pool1"
}
layer {
  name: "conv2"
  type: "Convolution"
  bottom: "pool1"
  top: "conv2"
  param {
    lr_mult: 1
    decay_mult: 1
  }
  param {
    lr_mult: 2
    decay_mult: 0
  }
  convolution_param {
    num_output: 42
    kernel_size: 4
    stride: 1
    weight_filler {
      type: "xavier"
    }
  }
}
layer {
  name: "pool2"
  type: "Pooling"
  bottom: "conv2"
  top: "pool2"
  pooling_param {
    pool: MAX
    kernel_size: 3
    stride: 2
  }
}
layer {
  name: "relu2"
  type: "ReLU"
  bottom: "pool2"
  top: "pool2"
}
layer {
  name: "conv3"
  type: "Convolution"
  bottom: "pool2"
  top: "conv3"
  param {
    lr_mult: 1
    decay_mult: 1
  }
  param {
    lr_mult: 2
    decay_mult: 0
  }
  convolution_param {
    num_output: 64
    kernel_size: 2
    stride: 1
    weight_filler {
      type: "xavier"
    }
  }
}
layer {
  name: "pool3"
  type: "Pooling"
  bottom: "conv3"
  top: "pool3"
  pooling_param {
    pool: MAX
    kernel_size: 2
    stride: 2
  }
}
layer {
  name: "relu3"
  type: "ReLU"
  bottom: "pool3"
  top: "pool3"
}
layer {
  name: "fc_last"
  type: "InnerProduct"
  bottom: "pool3"
  top: "fc_last"
  param {
    lr_mult: 1
    decay_mult: 1
  }
  param {
    lr_mult: 2
    decay_mult: 0
  }
  inner_product_param {
    num_output: 768
    weight_filler {
      type: "xavier"
    }
  }
}
layer {
  name: "relu_last"
  type: "ReLU"
  bottom: "fc_last"
  top: "fc_last"
}
layer {
  name: "fc_class"
  type: "InnerProduct"
  bottom: "fc_last"
  top: "fc_class"
  param {
    lr_mult: 1
    decay_mult: 1
  }
  param {
    lr_mult: 2
    decay_mult: 0
  }
  inner_product_param {
    num_output: 4
    weight_filler {
      type: "xavier"
    }
  }
}
layer {
  name: "accuracy_class"
  type: "Accuracy"
  bottom: "fc_class"
  bottom: "label"
  top: "accuracy_class"
}
layer {
  name: "loss_class"
  type: "SoftmaxWithLoss"
  bottom: "fc_class"
  bottom: "label"
  top: "loss_class"
}
I1025 10:19:44.454954  8208 layer_factory.hpp:77] Creating layer data
I1025 10:19:44.455845  8208 net.cpp:100] Creating Layer data
I1025 10:19:44.455854  8208 net.cpp:408] data -> data
I1025 10:19:44.455875  8208 net.cpp:408] data -> label
I1025 10:19:44.455893  8208 data_transformer.cpp:25] Loading mean file from: /home/maheriya/Projects/IMAGES/dvia/png.32x32/data/dvia_32x32/trn_mean.binaryproto
I1025 10:19:44.456568  8243 db_lmdb.cpp:35] Opened lmdb /home/maheriya/Projects/IMAGES/dvia/png.32x32/data/dvia_32x32/trn_lmdb
I1025 10:19:44.466411  8208 data_layer.cpp:41] output data size: 120,3,32,32
I1025 10:19:44.468698  8208 net.cpp:150] Setting up data
I1025 10:19:44.468729  8208 net.cpp:157] Top shape: 120 3 32 32 (368640)
I1025 10:19:44.468731  8208 net.cpp:157] Top shape: 120 (120)
I1025 10:19:44.468734  8208 net.cpp:165] Memory required for data: 1475040
I1025 10:19:44.468752  8208 layer_factory.hpp:77] Creating layer label_data_1_split
I1025 10:19:44.468773  8208 net.cpp:100] Creating Layer label_data_1_split
I1025 10:19:44.468776  8208 net.cpp:434] label_data_1_split <- label
I1025 10:19:44.468794  8208 net.cpp:408] label_data_1_split -> label_data_1_split_0
I1025 10:19:44.468799  8208 net.cpp:408] label_data_1_split -> label_data_1_split_1
I1025 10:19:44.468873  8208 net.cpp:150] Setting up label_data_1_split
I1025 10:19:44.468875  8208 net.cpp:157] Top shape: 120 (120)
I1025 10:19:44.468878  8208 net.cpp:157] Top shape: 120 (120)
I1025 10:19:44.468879  8208 net.cpp:165] Memory required for data: 1476000
I1025 10:19:44.468881  8208 layer_factory.hpp:77] Creating layer conv1
I1025 10:19:44.468906  8208 net.cpp:100] Creating Layer conv1
I1025 10:19:44.468909  8208 net.cpp:434] conv1 <- data
I1025 10:19:44.468925  8208 net.cpp:408] conv1 -> conv1
I1025 10:19:44.469482  8208 net.cpp:150] Setting up conv1
I1025 10:19:44.469490  8208 net.cpp:157] Top shape: 120 64 29 29 (6458880)
I1025 10:19:44.469491  8208 net.cpp:165] Memory required for data: 27311520
I1025 10:19:44.469498  8208 layer_factory.hpp:77] Creating layer cccp1a
I1025 10:19:44.469506  8208 net.cpp:100] Creating Layer cccp1a
I1025 10:19:44.469507  8208 net.cpp:434] cccp1a <- conv1
I1025 10:19:44.469524  8208 net.cpp:408] cccp1a -> cccp1a
I1025 10:19:44.469746  8208 net.cpp:150] Setting up cccp1a
I1025 10:19:44.469750  8208 net.cpp:157] Top shape: 120 42 29 29 (4238640)
I1025 10:19:44.469766  8208 net.cpp:165] Memory required for data: 44266080
I1025 10:19:44.469771  8208 layer_factory.hpp:77] Creating layer relu1a
I1025 10:19:44.469776  8208 net.cpp:100] Creating Layer relu1a
I1025 10:19:44.469777  8208 net.cpp:434] relu1a <- cccp1a
I1025 10:19:44.469780  8208 net.cpp:395] relu1a -> cccp1a (in-place)
I1025 10:19:44.469785  8208 net.cpp:150] Setting up relu1a
I1025 10:19:44.469802  8208 net.cpp:157] Top shape: 120 42 29 29 (4238640)
I1025 10:19:44.469804  8208 net.cpp:165] Memory required for data: 61220640
I1025 10:19:44.469805  8208 layer_factory.hpp:77] Creating layer cccp1b
I1025 10:19:44.469811  8208 net.cpp:100] Creating Layer cccp1b
I1025 10:19:44.469813  8208 net.cpp:434] cccp1b <- cccp1a
I1025 10:19:44.469816  8208 net.cpp:408] cccp1b -> cccp1b
I1025 10:19:44.470154  8208 net.cpp:150] Setting up cccp1b
I1025 10:19:44.470157  8208 net.cpp:157] Top shape: 120 32 29 29 (3229440)
I1025 10:19:44.470173  8208 net.cpp:165] Memory required for data: 74138400
I1025 10:19:44.470177  8208 layer_factory.hpp:77] Creating layer pool1
I1025 10:19:44.470183  8208 net.cpp:100] Creating Layer pool1
I1025 10:19:44.470185  8208 net.cpp:434] pool1 <- cccp1b
I1025 10:19:44.470187  8208 net.cpp:408] pool1 -> pool1
I1025 10:19:44.470257  8208 net.cpp:150] Setting up pool1
I1025 10:19:44.470259  8208 net.cpp:157] Top shape: 120 32 14 14 (752640)
I1025 10:19:44.470262  8208 net.cpp:165] Memory required for data: 77148960
I1025 10:19:44.470275  8208 layer_factory.hpp:77] Creating layer relu1b
I1025 10:19:44.470278  8208 net.cpp:100] Creating Layer relu1b
I1025 10:19:44.470280  8208 net.cpp:434] relu1b <- pool1
I1025 10:19:44.470283  8208 net.cpp:395] relu1b -> pool1 (in-place)
I1025 10:19:44.470299  8208 net.cpp:150] Setting up relu1b
I1025 10:19:44.470300  8208 net.cpp:157] Top shape: 120 32 14 14 (752640)
I1025 10:19:44.470302  8208 net.cpp:165] Memory required for data: 80159520
I1025 10:19:44.470304  8208 layer_factory.hpp:77] Creating layer conv2
I1025 10:19:44.470324  8208 net.cpp:100] Creating Layer conv2
I1025 10:19:44.470326  8208 net.cpp:434] conv2 <- pool1
I1025 10:19:44.470329  8208 net.cpp:408] conv2 -> conv2
I1025 10:19:44.471021  8208 net.cpp:150] Setting up conv2
I1025 10:19:44.471029  8208 net.cpp:157] Top shape: 120 42 11 11 (609840)
I1025 10:19:44.471030  8208 net.cpp:165] Memory required for data: 82598880
I1025 10:19:44.471034  8208 layer_factory.hpp:77] Creating layer pool2
I1025 10:19:44.471038  8208 net.cpp:100] Creating Layer pool2
I1025 10:19:44.471040  8208 net.cpp:434] pool2 <- conv2
I1025 10:19:44.471043  8208 net.cpp:408] pool2 -> pool2
I1025 10:19:44.471107  8208 net.cpp:150] Setting up pool2
I1025 10:19:44.471110  8208 net.cpp:157] Top shape: 120 42 5 5 (126000)
I1025 10:19:44.471127  8208 net.cpp:165] Memory required for data: 83102880
I1025 10:19:44.471128  8208 layer_factory.hpp:77] Creating layer relu2
I1025 10:19:44.471132  8208 net.cpp:100] Creating Layer relu2
I1025 10:19:44.471134  8208 net.cpp:434] relu2 <- pool2
I1025 10:19:44.471138  8208 net.cpp:395] relu2 -> pool2 (in-place)
I1025 10:19:44.471141  8208 net.cpp:150] Setting up relu2
I1025 10:19:44.471143  8208 net.cpp:157] Top shape: 120 42 5 5 (126000)
I1025 10:19:44.471144  8208 net.cpp:165] Memory required for data: 83606880
I1025 10:19:44.471146  8208 layer_factory.hpp:77] Creating layer conv3
I1025 10:19:44.471151  8208 net.cpp:100] Creating Layer conv3
I1025 10:19:44.471166  8208 net.cpp:434] conv3 <- pool2
I1025 10:19:44.471169  8208 net.cpp:408] conv3 -> conv3
I1025 10:19:44.471755  8208 net.cpp:150] Setting up conv3
I1025 10:19:44.471760  8208 net.cpp:157] Top shape: 120 64 4 4 (122880)
I1025 10:19:44.471761  8208 net.cpp:165] Memory required for data: 84098400
I1025 10:19:44.471768  8208 layer_factory.hpp:77] Creating layer pool3
I1025 10:19:44.471772  8208 net.cpp:100] Creating Layer pool3
I1025 10:19:44.471774  8208 net.cpp:434] pool3 <- conv3
I1025 10:19:44.471791  8208 net.cpp:408] pool3 -> pool3
I1025 10:19:44.471813  8208 net.cpp:150] Setting up pool3
I1025 10:19:44.471817  8208 net.cpp:157] Top shape: 120 64 2 2 (30720)
I1025 10:19:44.471817  8208 net.cpp:165] Memory required for data: 84221280
I1025 10:19:44.471819  8208 layer_factory.hpp:77] Creating layer relu3
I1025 10:19:44.471822  8208 net.cpp:100] Creating Layer relu3
I1025 10:19:44.471824  8208 net.cpp:434] relu3 <- pool3
I1025 10:19:44.471827  8208 net.cpp:395] relu3 -> pool3 (in-place)
I1025 10:19:44.471829  8208 net.cpp:150] Setting up relu3
I1025 10:19:44.471832  8208 net.cpp:157] Top shape: 120 64 2 2 (30720)
I1025 10:19:44.471833  8208 net.cpp:165] Memory required for data: 84344160
I1025 10:19:44.471835  8208 layer_factory.hpp:77] Creating layer fc_last
I1025 10:19:44.471838  8208 net.cpp:100] Creating Layer fc_last
I1025 10:19:44.471840  8208 net.cpp:434] fc_last <- pool3
I1025 10:19:44.471844  8208 net.cpp:408] fc_last -> fc_last
I1025 10:19:44.473393  8208 net.cpp:150] Setting up fc_last
I1025 10:19:44.473400  8208 net.cpp:157] Top shape: 120 768 (92160)
I1025 10:19:44.473402  8208 net.cpp:165] Memory required for data: 84712800
I1025 10:19:44.473407  8208 layer_factory.hpp:77] Creating layer relu_last
I1025 10:19:44.473410  8208 net.cpp:100] Creating Layer relu_last
I1025 10:19:44.473412  8208 net.cpp:434] relu_last <- fc_last
I1025 10:19:44.473415  8208 net.cpp:395] relu_last -> fc_last (in-place)
I1025 10:19:44.473419  8208 net.cpp:150] Setting up relu_last
I1025 10:19:44.473422  8208 net.cpp:157] Top shape: 120 768 (92160)
I1025 10:19:44.473423  8208 net.cpp:165] Memory required for data: 85081440
I1025 10:19:44.473425  8208 layer_factory.hpp:77] Creating layer fc_class
I1025 10:19:44.473430  8208 net.cpp:100] Creating Layer fc_class
I1025 10:19:44.473446  8208 net.cpp:434] fc_class <- fc_last
I1025 10:19:44.473449  8208 net.cpp:408] fc_class -> fc_class
I1025 10:19:44.473547  8208 net.cpp:150] Setting up fc_class
I1025 10:19:44.473551  8208 net.cpp:157] Top shape: 120 4 (480)
I1025 10:19:44.473553  8208 net.cpp:165] Memory required for data: 85083360
I1025 10:19:44.473569  8208 layer_factory.hpp:77] Creating layer fc_class_fc_class_0_split
I1025 10:19:44.473573  8208 net.cpp:100] Creating Layer fc_class_fc_class_0_split
I1025 10:19:44.473575  8208 net.cpp:434] fc_class_fc_class_0_split <- fc_class
I1025 10:19:44.473578  8208 net.cpp:408] fc_class_fc_class_0_split -> fc_class_fc_class_0_split_0
I1025 10:19:44.473583  8208 net.cpp:408] fc_class_fc_class_0_split -> fc_class_fc_class_0_split_1
I1025 10:19:44.473606  8208 net.cpp:150] Setting up fc_class_fc_class_0_split
I1025 10:19:44.473609  8208 net.cpp:157] Top shape: 120 4 (480)
I1025 10:19:44.473611  8208 net.cpp:157] Top shape: 120 4 (480)
I1025 10:19:44.473613  8208 net.cpp:165] Memory required for data: 85087200
I1025 10:19:44.473614  8208 layer_factory.hpp:77] Creating layer accuracy_class
I1025 10:19:44.473620  8208 net.cpp:100] Creating Layer accuracy_class
I1025 10:19:44.473623  8208 net.cpp:434] accuracy_class <- fc_class_fc_class_0_split_0
I1025 10:19:44.473625  8208 net.cpp:434] accuracy_class <- label_data_1_split_0
…
I1025 10:19:44.712785  8249 solver.cpp:81] Creating training net from train_net file: dvia_pretrain.prototxt
I1025 10:19:44.713140  8249 net.cpp:58] Initializing net from parameters: 
state {
  phase: TRAIN
  level: 0
  stage: ""
}
layer {
  name: "data"
  type: "Data"
  top: "data"
  top: "label_coarse"
  transform_param {
    scale: 0.00390625
    mirror: true
    mean_file: "/home/maheriya/Projects/IMAGES/dvia/cifar_png.32x32/data/cifar_32x32/trn_mean.binaryproto"
  }
  data_param {
    source: "/home/maheriya/Projects/IMAGES/dvia/cifar_png.32x32/data/cifar_32x32/trn_lmdb"
    batch_size: 120
    backend: LMDB
  }
}
layer {
  name: "conv1"
  type: "Convolution"
  bottom: "data"
  top: "conv1"
  param {
    lr_mult: 1
    decay_mult: 1
  }
  param {
    lr_mult: 2
    decay_mult: 0
  }
  convolution_param {
    num_output: 64
    kernel_size: 4
    stride: 1
    weight_filler {
      type: "xavier"
    }
  }
}
layer {
  name: "cccp1a"
  type: "Convolution"
  bottom: "conv1"
  top: "cccp1a"
  param {
    lr_mult: 1
    decay_mult: 1
  }
  param {
    lr_mult: 2
    decay_mult: 0
  }
  convolution_param {
    num_output: 42
    kernel_size: 1
    stride: 1
    weight_filler {
      type: "xavier"
    }
  }
}
layer {
  name: "relu1a"
  type: "ReLU"
  bottom: "cccp1a"
  top: "cccp1a"
}
layer {
  name: "cccp1b"
  type: "Convolution"
  bottom: "cccp1a"
  top: "cccp1b"
  param {
    lr_mult: 1
    decay_mult: 1
  }
  param {
    lr_mult: 2
    decay_mult: 0
  }
  convolution_param {
    num_output: 32
    kernel_size: 1
    stride: 1
    weight_filler {
      type: "xavier"
    }
  }
}
layer {
  name: "pool1"
  type: "Pooling"
  bottom: "cccp1b"
  top: "pool1"
  pooling_param {
    pool: MAX
    kernel_size: 3
    stride: 2
  }
}
layer {
  name: "relu1b"
  type: "ReLU"
  bottom: "pool1"
  top: "pool1"
}
layer {
  name: "conv2"
  type: "Convolution"
  bottom: "pool1"
  top: "conv2"
  param {
    lr_mult: 1
    decay_mult: 1
  }
  param {
    lr_mult: 2
    decay_mult: 0
  }
  convolution_param {
    num_output: 42
    kernel_size: 4
    stride: 1
    weight_filler {
      type: "xavier"
    }
  }
}
layer {
  name: "pool2"
  type: "Pooling"
  bottom: "conv2"
  top: "pool2"
  pooling_param {
    pool: MAX
    kernel_size: 3
    stride: 2
  }
}
layer {
  name: "relu2"
  type: "ReLU"
  bottom: "pool2"
  top: "pool2"
}
layer {
  name: "conv3"
  type: "Convolution"
  bottom: "pool2"
  top: "conv3"
  param {
    lr_mult: 1
    decay_mult: 1
  }
  param {
    lr_mult: 2
    decay_mult: 0
  }
  convolution_param {
    num_output: 64
    kernel_size: 2
    stride: 1
    weight_filler {
      type: "xavier"
    }
  }
}
layer {
  name: "pool3"
  type: "Pooling"
  bottom: "conv3"
  top: "pool3"
  pooling_param {
    pool: MAX
    kernel_size: 2
    stride: 2
  }
}
layer {
  name: "relu3"
  type: "ReLU"
  bottom: "pool3"
  top: "pool3"
}
layer {
  name: "fc_last"
  type: "InnerProduct"
  bottom: "pool3"
  top: "fc_last"
  param {
    lr_mult: 1
    decay_mult: 1
  }
  param {
    lr_mult: 2
    decay_mult: 0
  }
  inner_product_param {
    num_output: 768
    weight_filler {
      type: "xavier"
    }
  }
}
layer {
  name: "relu_last"
  type: "ReLU"
  bottom: "fc_last"
  top: "fc_last"
}
layer {
  name: "fc_coarse"
  type: "InnerProduct"
  bottom: "fc_last"
  top: "fc_coarse"
  param {
    lr_mult: 1
    decay_mult: 1
  }
  param {
    lr_mult: 2
    decay_mult: 0
  }
  inner_product_param {
    num_output: 20
    weight_filler {
      type: "xavier"
    }
  }
}
layer {
  name: "accuracy_coarse"
  type: "Accuracy"
  bottom: "fc_coarse"
  bottom: "label_coarse"
  top: "accuracy_coarse"
}
layer {
  name: "loss_coarse"
  type: "SoftmaxWithLoss"
  bottom: "fc_coarse"
  bottom: "label_coarse"
  top: "loss_coarse"
}
I1025 10:19:44.713286  8249 layer_factory.hpp:77] Creating layer data
I1025 10:19:44.713738  8249 net.cpp:100] Creating Layer data
I1025 10:19:44.713744  8249 net.cpp:408] data -> data
I1025 10:19:44.713788  8249 net.cpp:408] data -> label_coarse
I1025 10:19:44.713795  8249 data_transformer.cpp:25] Loading mean file from: /home/maheriya/Projects/IMAGES/dvia/cifar_png.32x32/data/cifar_32x32/trn_mean.binaryproto
I1025 10:19:44.714463  8253 db_lmdb.cpp:35] Opened lmdb /home/maheriya/Projects/IMAGES/dvia/cifar_png.32x32/data/cifar_32x32/trn_lmdb
I1025 10:19:44.724067  8249 data_layer.cpp:41] output data size: 120,3,32,32
I1025 10:19:44.726724  8249 net.cpp:150] Setting up data
I1025 10:19:44.726780  8249 net.cpp:157] Top shape: 120 3 32 32 (368640)
I1025 10:19:44.726784  8249 net.cpp:157] Top shape: 120 (120)
I1025 10:19:44.726801  8249 net.cpp:165] Memory required for data: 1475040
I1025 10:19:44.726824  8249 layer_factory.hpp:77] Creating layer label_coarse_data_1_split
I1025 10:19:44.726847  8249 net.cpp:100] Creating Layer label_coarse_data_1_split
I1025 10:19:44.726852  8249 net.cpp:434] label_coarse_data_1_split <- label_coarse
I1025 10:19:44.726892  8249 net.cpp:408] label_coarse_data_1_split -> label_coarse_data_1_split_0
I1025 10:19:44.726898  8249 net.cpp:408] label_coarse_data_1_split -> label_coarse_data_1_split_1
I1025 10:19:44.726950  8249 net.cpp:150] Setting up label_coarse_data_1_split
I1025 10:19:44.726954  8249 net.cpp:157] Top shape: 120 (120)
I1025 10:19:44.726956  8249 net.cpp:157] Top shape: 120 (120)
I1025 10:19:44.726958  8249 net.cpp:165] Memory required for data: 1476000
I1025 10:19:44.726972  8249 layer_factory.hpp:77] Creating layer conv1
I1025 10:19:44.726999  8249 net.cpp:100] Creating Layer conv1
I1025 10:19:44.727002  8249 net.cpp:434] conv1 <- data
I1025 10:19:44.727007  8249 net.cpp:408] conv1 -> conv1
I1025 10:19:44.727584  8249 net.cpp:150] Setting up conv1
I1025 10:19:44.727607  8249 net.cpp:157] Top shape: 120 64 29 29 (6458880)
I1025 10:19:44.727608  8249 net.cpp:165] Memory required for data: 27311520
I1025 10:19:44.727623  8249 layer_factory.hpp:77] Creating layer cccp1a
I1025 10:19:44.727632  8249 net.cpp:100] Creating Layer cccp1a
I1025 10:19:44.727633  8249 net.cpp:434] cccp1a <- conv1
I1025 10:19:44.727636  8249 net.cpp:408] cccp1a -> cccp1a
I1025 10:19:44.727941  8249 net.cpp:150] Setting up cccp1a
I1025 10:19:44.727947  8249 net.cpp:157] Top shape: 120 42 29 29 (4238640)
I1025 10:19:44.727963  8249 net.cpp:165] Memory required for data: 44266080
I1025 10:19:44.727968  8249 layer_factory.hpp:77] Creating layer relu1a
I1025 10:19:44.727974  8249 net.cpp:100] Creating Layer relu1a
I1025 10:19:44.727977  8249 net.cpp:434] relu1a <- cccp1a
I1025 10:19:44.727980  8249 net.cpp:395] relu1a -> cccp1a (in-place)
I1025 10:19:44.727985  8249 net.cpp:150] Setting up relu1a
I1025 10:19:44.727988  8249 net.cpp:157] Top shape: 120 42 29 29 (4238640)
I1025 10:19:44.727989  8249 net.cpp:165] Memory required for data: 61220640
I1025 10:19:44.727991  8249 layer_factory.hpp:77] Creating layer cccp1b
I1025 10:19:44.727996  8249 net.cpp:100] Creating Layer cccp1b
I1025 10:19:44.727998  8249 net.cpp:434] cccp1b <- cccp1a
I1025 10:19:44.728003  8249 net.cpp:408] cccp1b -> cccp1b
I1025 10:19:44.728370  8249 net.cpp:150] Setting up cccp1b
I1025 10:19:44.728375  8249 net.cpp:157] Top shape: 120 32 29 29 (3229440)
I1025 10:19:44.728377  8249 net.cpp:165] Memory required for data: 74138400
I1025 10:19:44.728382  8249 layer_factory.hpp:77] Creating layer pool1
I1025 10:19:44.728386  8249 net.cpp:100] Creating Layer pool1
I1025 10:19:44.728402  8249 net.cpp:434] pool1 <- cccp1b
I1025 10:19:44.728405  8249 net.cpp:408] pool1 -> pool1
I1025 10:19:44.728476  8249 net.cpp:150] Setting up pool1
I1025 10:19:44.728492  8249 net.cpp:157] Top shape: 120 32 14 14 (752640)
I1025 10:19:44.728492  8249 net.cpp:165] Memory required for data: 77148960
I1025 10:19:44.728535  8249 layer_factory.hpp:77] Creating layer relu1b
I1025 10:19:44.728539  8249 net.cpp:100] Creating Layer relu1b
I1025 10:19:44.728541  8249 net.cpp:434] relu1b <- pool1
I1025 10:19:44.728557  8249 net.cpp:395] relu1b -> pool1 (in-place)
I1025 10:19:44.728560  8249 net.cpp:150] Setting up relu1b
I1025 10:19:44.728566  8249 net.cpp:157] Top shape: 120 32 14 14 (752640)
I1025 10:19:44.728567  8249 net.cpp:165] Memory required for data: 80159520
I1025 10:19:44.728569  8249 layer_factory.hpp:77] Creating layer conv2
I1025 10:19:44.728575  8249 net.cpp:100] Creating Layer conv2
I1025 10:19:44.728579  8249 net.cpp:434] conv2 <- pool1
I1025 10:19:44.728600  8249 net.cpp:408] conv2 -> conv2
I1025 10:19:44.729343  8249 net.cpp:150] Setting up conv2
I1025 10:19:44.729351  8249 net.cpp:157] Top shape: 120 42 11 11 (609840)
I1025 10:19:44.729352  8249 net.cpp:165] Memory required for data: 82598880
I1025 10:19:44.729357  8249 layer_factory.hpp:77] Creating layer pool2
I1025 10:19:44.729362  8249 net.cpp:100] Creating Layer pool2
I1025 10:19:44.729363  8249 net.cpp:434] pool2 <- conv2
I1025 10:19:44.729367  8249 net.cpp:408] pool2 -> pool2
I1025 10:19:44.729403  8249 net.cpp:150] Setting up pool2
I1025 10:19:44.729406  8249 net.cpp:157] Top shape: 120 42 5 5 (126000)
I1025 10:19:44.729408  8249 net.cpp:165] Memory required for data: 83102880
I1025 10:19:44.729423  8249 layer_factory.hpp:77] Creating layer relu2
I1025 10:19:44.729426  8249 net.cpp:100] Creating Layer relu2
I1025 10:19:44.729429  8249 net.cpp:434] relu2 <- pool2
I1025 10:19:44.729446  8249 net.cpp:395] relu2 -> pool2 (in-place)
I1025 10:19:44.729450  8249 net.cpp:150] Setting up relu2
I1025 10:19:44.729452  8249 net.cpp:157] Top shape: 120 42 5 5 (126000)
I1025 10:19:44.729454  8249 net.cpp:165] Memory required for data: 83606880
I1025 10:19:44.729468  8249 layer_factory.hpp:77] Creating layer conv3
I1025 10:19:44.729475  8249 net.cpp:100] Creating Layer conv3
I1025 10:19:44.729476  8249 net.cpp:434] conv3 <- pool2
I1025 10:19:44.729480  8249 net.cpp:408] conv3 -> conv3
I1025 10:19:44.729977  8249 net.cpp:150] Setting up conv3
I1025 10:19:44.729984  8249 net.cpp:157] Top shape: 120 64 4 4 (122880)
I1025 10:19:44.729986  8249 net.cpp:165] Memory required for data: 84098400
I1025 10:19:44.729992  8249 layer_factory.hpp:77] Creating layer pool3
I1025 10:19:44.729997  8249 net.cpp:100] Creating Layer pool3
I1025 10:19:44.730000  8249 net.cpp:434] pool3 <- conv3
I1025 10:19:44.730002  8249 net.cpp:408] pool3 -> pool3
I1025 10:19:44.730024  8249 net.cpp:150] Setting up pool3
I1025 10:19:44.730028  8249 net.cpp:157] Top shape: 120 64 2 2 (30720)
I1025 10:19:44.730031  8249 net.cpp:165] Memory required for data: 84221280
I1025 10:19:44.730032  8249 layer_factory.hpp:77] Creating layer relu3
I1025 10:19:44.730048  8249 net.cpp:100] Creating Layer relu3
I1025 10:19:44.730051  8249 net.cpp:434] relu3 <- pool3
I1025 10:19:44.730053  8249 net.cpp:395] relu3 -> pool3 (in-place)
I1025 10:19:44.730058  8249 net.cpp:150] Setting up relu3
I1025 10:19:44.730060  8249 net.cpp:157] Top shape: 120 64 2 2 (30720)
I1025 10:19:44.730062  8249 net.cpp:165] Memory required for data: 84344160
I1025 10:19:44.730064  8249 layer_factory.hpp:77] Creating layer fc_last
I1025 10:19:44.730069  8249 net.cpp:100] Creating Layer fc_last
I1025 10:19:44.730072  8249 net.cpp:434] fc_last <- pool3
I1025 10:19:44.730075  8249 net.cpp:408] fc_last -> fc_last
I1025 10:19:44.731619  8249 net.cpp:150] Setting up fc_last
I1025 10:19:44.731626  8249 net.cpp:157] Top shape: 120 768 (92160)
I1025 10:19:44.731627  8249 net.cpp:165] Memory required for data: 84712800
I1025 10:19:44.731643  8249 layer_factory.hpp:77] Creating layer relu_last
I1025 10:19:44.731649  8249 net.cpp:100] Creating Layer relu_last
I1025 10:19:44.731652  8249 net.cpp:434] relu_last <- fc_last
I1025 10:19:44.731654  8249 net.cpp:395] relu_last -> fc_last (in-place)
I1025 10:19:44.731658  8249 net.cpp:150] Setting up relu_last
I1025 10:19:44.731662  8249 net.cpp:157] Top shape: 120 768 (92160)
I1025 10:19:44.731663  8249 net.cpp:165] Memory required for data: 85081440
I1025 10:19:44.731676  8249 layer_factory.hpp:77] Creating layer fc_coarse
I1025 10:19:44.731683  8249 net.cpp:100] Creating Layer fc_coarse
I1025 10:19:44.731688  8249 net.cpp:434] fc_coarse <- fc_last
I1025 10:19:44.731691  8249 net.cpp:408] fc_coarse -> fc_coarse
I1025 10:19:44.731845  8249 net.cpp:150] Setting up fc_coarse
I1025 10:19:44.731849  8249 net.cpp:157] Top shape: 120 20 (2400)
I1025 10:19:44.731851  8249 net.cpp:165] Memory required for data: 85091040
I1025 10:19:44.731854  8249 layer_factory.hpp:77] Creating layer fc_coarse_fc_coarse_0_split
I1025 10:19:44.731858  8249 net.cpp:100] Creating Layer fc_coarse_fc_coarse_0_split
I1025 10:19:44.731861  8249 net.cpp:434] fc_coarse_fc_coarse_0_split <- fc_coarse
I1025 10:19:44.731864  8249 net.cpp:408] fc_coarse_fc_coarse_0_split -> fc_coarse_fc_coarse_0_split_0
I1025 10:19:44.731884  8249 net.cpp:408] fc_coarse_fc_coarse_0_split -> fc_coarse_fc_coarse_0_split_1
I1025 10:19:44.731932  8249 net.cpp:150] Setting up fc_coarse_fc_coarse_0_split
I1025 10:19:44.731936  8249 net.cpp:157] Top shape: 120 20 (2400)
I1025 10:19:44.731938  8249 net.cpp:157] Top shape: 120 20 (2400)
I1025 10:19:44.731940  8249 net.cpp:165] Memory required for data: 85110240
I1025 10:19:44.731942  8249 layer_factory.hpp:77] Creating layer accuracy_coarse
I1025 10:19:44.731946  8249 net.cpp:100] Creating Layer accuracy_coarse
I1025 10:19:44.731950  8249 net.cpp:434] accuracy_coarse <- fc_coarse_fc_coarse_0_split_0
I1025 10:19:44.731952  8249 net.cpp:434] accuracy_coarse <- label_coarse_data_1_split_0
…
