…
I1112 11:27:13.742234 29611 solver.cpp:81] Creating training net from train_net file: dvia_train.prototxt
I1112 11:27:13.742486 29611 net.cpp:58] Initializing net from parameters: 
state {
  phase: TRAIN
}
layer {
  name: "data"
  type: "Data"
  top: "data"
  top: "label"
  transform_param {
    scale: 0.00390625
    mirror: true
    mean_file: "/home/maheriya/Projects/IMAGES/dvia/png.32x32/data/dvia_32x32/trn_mean.binaryproto"
  }
  data_param {
    source: "/home/maheriya/Projects/IMAGES/dvia/png.32x32/data/dvia_32x32/trn_lmdb"
    batch_size: 100
    backend: LMDB
  }
}
layer {
  name: "conv1"
  type: "Convolution"
  bottom: "data"
  top: "conv1"
  param {
    lr_mult: 0.2
    decay_mult: 0.2
  }
  param {
    lr_mult: 0.4
    decay_mult: 0
  }
  convolution_param {
    num_output: 64
    kernel_size: 5
    stride: 1
    weight_filler {
      type: "xavier"
    }
  }
}
layer {
  name: "pool1"
  type: "Pooling"
  bottom: "conv1"
  top: "pool1"
  pooling_param {
    pool: MAX
    kernel_size: 2
    stride: 2
  }
}
layer {
  name: "relu1b"
  type: "ReLU"
  bottom: "pool1"
  top: "pool1"
}
layer {
  name: "conv2"
  type: "Convolution"
  bottom: "pool1"
  top: "conv2"
  param {
    lr_mult: 0.2
    decay_mult: 0.2
  }
  param {
    lr_mult: 0.4
    decay_mult: 0
  }
  convolution_param {
    num_output: 100
    kernel_size: 3
    stride: 1
    weight_filler {
      type: "xavier"
    }
  }
}
layer {
  name: "pool2"
  type: "Pooling"
  bottom: "conv2"
  top: "pool2"
  pooling_param {
    pool: MAX
    kernel_size: 2
    stride: 2
  }
}
layer {
  name: "relu2"
  type: "ReLU"
  bottom: "pool2"
  top: "pool2"
}
layer {
  name: "conv3"
  type: "Convolution"
  bottom: "pool2"
  top: "conv3"
  param {
    lr_mult: 1
    decay_mult: 1
  }
  param {
    lr_mult: 2
    decay_mult: 0
  }
  convolution_param {
    num_output: 200
    kernel_size: 3
    stride: 1
    weight_filler {
      type: "xavier"
    }
  }
}
layer {
  name: "pool3"
  type: "Pooling"
  bottom: "conv3"
  top: "pool3"
  pooling_param {
    pool: MAX
    kernel_size: 2
    stride: 2
  }
}
layer {
  name: "relu3"
  type: "ReLU"
  bottom: "pool3"
  top: "pool3"
}
layer {
  name: "conv_last"
  type: "Convolution"
  bottom: "pool3"
  top: "conv_last"
  param {
    lr_mult: 1
    decay_mult: 1
  }
  param {
    lr_mult: 2
    decay_mult: 0
  }
  convolution_param {
    num_output: 384
    kernel_size: 1
    stride: 1
    weight_filler {
      type: "xavier"
    }
  }
}
layer {
  name: "relu_last"
  type: "ReLU"
  bottom: "conv_last"
  top: "conv_last"
}
layer {
  name: "fc_class"
  type: "InnerProduct"
  bottom: "conv_last"
  top: "fc_class"
  param {
    lr_mult: 1
    decay_mult: 1
  }
  param {
    lr_mult: 2
    decay_mult: 0
  }
  inner_product_param {
    num_output: 4
    weight_filler {
      type: "xavier"
    }
  }
}
layer {
  name: "accuracy_class"
  type: "Accuracy"
  bottom: "fc_class"
  bottom: "label"
  top: "accuracy_class"
}
layer {
  name: "loss_class"
  type: "SoftmaxWithLoss"
  bottom: "fc_class"
  bottom: "label"
  top: "loss_class"
}
I1112 11:27:13.742573 29611 layer_factory.hpp:77] Creating layer data
I1112 11:27:13.743458 29611 net.cpp:100] Creating Layer data
I1112 11:27:13.743464 29611 net.cpp:408] data -> data
I1112 11:27:13.743485 29611 net.cpp:408] data -> label
I1112 11:27:13.743505 29611 data_transformer.cpp:25] Loading mean file from: /home/maheriya/Projects/IMAGES/dvia/png.32x32/data/dvia_32x32/trn_mean.binaryproto
I1112 11:27:13.745153 29647 db_lmdb.cpp:35] Opened lmdb /home/maheriya/Projects/IMAGES/dvia/png.32x32/data/dvia_32x32/trn_lmdb
I1112 11:27:13.753327 29611 data_layer.cpp:41] output data size: 100,3,32,32
I1112 11:27:13.755867 29611 net.cpp:150] Setting up data
I1112 11:27:13.755895 29611 net.cpp:157] Top shape: 100 3 32 32 (307200)
I1112 11:27:13.755898 29611 net.cpp:157] Top shape: 100 (100)
I1112 11:27:13.755900 29611 net.cpp:165] Memory required for data: 1229200
I1112 11:27:13.755919 29611 layer_factory.hpp:77] Creating layer label_data_1_split
I1112 11:27:13.755939 29611 net.cpp:100] Creating Layer label_data_1_split
I1112 11:27:13.755942 29611 net.cpp:434] label_data_1_split <- label
I1112 11:27:13.755949 29611 net.cpp:408] label_data_1_split -> label_data_1_split_0
I1112 11:27:13.755955 29611 net.cpp:408] label_data_1_split -> label_data_1_split_1
I1112 11:27:13.756116 29611 net.cpp:150] Setting up label_data_1_split
I1112 11:27:13.756125 29611 net.cpp:157] Top shape: 100 (100)
I1112 11:27:13.756127 29611 net.cpp:157] Top shape: 100 (100)
I1112 11:27:13.756129 29611 net.cpp:165] Memory required for data: 1230000
I1112 11:27:13.756131 29611 layer_factory.hpp:77] Creating layer conv1
I1112 11:27:13.756172 29611 net.cpp:100] Creating Layer conv1
I1112 11:27:13.756175 29611 net.cpp:434] conv1 <- data
I1112 11:27:13.756178 29611 net.cpp:408] conv1 -> conv1
I1112 11:27:13.756918 29611 net.cpp:150] Setting up conv1
I1112 11:27:13.756939 29611 net.cpp:157] Top shape: 100 64 28 28 (5017600)
I1112 11:27:13.756942 29611 net.cpp:165] Memory required for data: 21300400
I1112 11:27:13.756963 29611 layer_factory.hpp:77] Creating layer pool1
I1112 11:27:13.756968 29611 net.cpp:100] Creating Layer pool1
I1112 11:27:13.756969 29611 net.cpp:434] pool1 <- conv1
I1112 11:27:13.756973 29611 net.cpp:408] pool1 -> pool1
I1112 11:27:13.757024 29611 net.cpp:150] Setting up pool1
I1112 11:27:13.757027 29611 net.cpp:157] Top shape: 100 64 14 14 (1254400)
I1112 11:27:13.757030 29611 net.cpp:165] Memory required for data: 26318000
I1112 11:27:13.757031 29611 layer_factory.hpp:77] Creating layer relu1b
I1112 11:27:13.757035 29611 net.cpp:100] Creating Layer relu1b
I1112 11:27:13.757037 29611 net.cpp:434] relu1b <- pool1
I1112 11:27:13.757040 29611 net.cpp:395] relu1b -> pool1 (in-place)
I1112 11:27:13.757043 29611 net.cpp:150] Setting up relu1b
I1112 11:27:13.757045 29611 net.cpp:157] Top shape: 100 64 14 14 (1254400)
I1112 11:27:13.757047 29611 net.cpp:165] Memory required for data: 31335600
I1112 11:27:13.757048 29611 layer_factory.hpp:77] Creating layer conv2
I1112 11:27:13.757055 29611 net.cpp:100] Creating Layer conv2
I1112 11:27:13.757055 29611 net.cpp:434] conv2 <- pool1
I1112 11:27:13.757079 29611 net.cpp:408] conv2 -> conv2
I1112 11:27:13.758139 29611 net.cpp:150] Setting up conv2
I1112 11:27:13.758147 29611 net.cpp:157] Top shape: 100 100 12 12 (1440000)
I1112 11:27:13.758147 29611 net.cpp:165] Memory required for data: 37095600
I1112 11:27:13.758153 29611 layer_factory.hpp:77] Creating layer pool2
I1112 11:27:13.758157 29611 net.cpp:100] Creating Layer pool2
I1112 11:27:13.758185 29611 net.cpp:434] pool2 <- conv2
I1112 11:27:13.758190 29611 net.cpp:408] pool2 -> pool2
I1112 11:27:13.758229 29611 net.cpp:150] Setting up pool2
I1112 11:27:13.758232 29611 net.cpp:157] Top shape: 100 100 6 6 (360000)
I1112 11:27:13.758234 29611 net.cpp:165] Memory required for data: 38535600
I1112 11:27:13.758235 29611 layer_factory.hpp:77] Creating layer relu2
I1112 11:27:13.758237 29611 net.cpp:100] Creating Layer relu2
I1112 11:27:13.758239 29611 net.cpp:434] relu2 <- pool2
I1112 11:27:13.758242 29611 net.cpp:395] relu2 -> pool2 (in-place)
I1112 11:27:13.758260 29611 net.cpp:150] Setting up relu2
I1112 11:27:13.758261 29611 net.cpp:157] Top shape: 100 100 6 6 (360000)
I1112 11:27:13.758263 29611 net.cpp:165] Memory required for data: 39975600
I1112 11:27:13.758265 29611 layer_factory.hpp:77] Creating layer conv3
I1112 11:27:13.758271 29611 net.cpp:100] Creating Layer conv3
I1112 11:27:13.758273 29611 net.cpp:434] conv3 <- pool2
I1112 11:27:13.758289 29611 net.cpp:408] conv3 -> conv3
I1112 11:27:13.759780 29611 net.cpp:150] Setting up conv3
I1112 11:27:13.759786 29611 net.cpp:157] Top shape: 100 200 4 4 (320000)
I1112 11:27:13.759788 29611 net.cpp:165] Memory required for data: 41255600
I1112 11:27:13.759793 29611 layer_factory.hpp:77] Creating layer pool3
I1112 11:27:13.759798 29611 net.cpp:100] Creating Layer pool3
I1112 11:27:13.759814 29611 net.cpp:434] pool3 <- conv3
I1112 11:27:13.759816 29611 net.cpp:408] pool3 -> pool3
I1112 11:27:13.759853 29611 net.cpp:150] Setting up pool3
I1112 11:27:13.759857 29611 net.cpp:157] Top shape: 100 200 2 2 (80000)
I1112 11:27:13.759858 29611 net.cpp:165] Memory required for data: 41575600
I1112 11:27:13.759860 29611 layer_factory.hpp:77] Creating layer relu3
I1112 11:27:13.759863 29611 net.cpp:100] Creating Layer relu3
I1112 11:27:13.759865 29611 net.cpp:434] relu3 <- pool3
I1112 11:27:13.759867 29611 net.cpp:395] relu3 -> pool3 (in-place)
I1112 11:27:13.759871 29611 net.cpp:150] Setting up relu3
I1112 11:27:13.759872 29611 net.cpp:157] Top shape: 100 200 2 2 (80000)
I1112 11:27:13.759874 29611 net.cpp:165] Memory required for data: 41895600
I1112 11:27:13.759876 29611 layer_factory.hpp:77] Creating layer conv_last
I1112 11:27:13.759881 29611 net.cpp:100] Creating Layer conv_last
I1112 11:27:13.759883 29611 net.cpp:434] conv_last <- pool3
I1112 11:27:13.759886 29611 net.cpp:408] conv_last -> conv_last
I1112 11:27:13.760543 29611 net.cpp:150] Setting up conv_last
I1112 11:27:13.760548 29611 net.cpp:157] Top shape: 100 384 2 2 (153600)
I1112 11:27:13.760550 29611 net.cpp:165] Memory required for data: 42510000
I1112 11:27:13.760553 29611 layer_factory.hpp:77] Creating layer relu_last
I1112 11:27:13.760556 29611 net.cpp:100] Creating Layer relu_last
I1112 11:27:13.760558 29611 net.cpp:434] relu_last <- conv_last
I1112 11:27:13.760572 29611 net.cpp:395] relu_last -> conv_last (in-place)
I1112 11:27:13.760576 29611 net.cpp:150] Setting up relu_last
I1112 11:27:13.760578 29611 net.cpp:157] Top shape: 100 384 2 2 (153600)
I1112 11:27:13.760579 29611 net.cpp:165] Memory required for data: 43124400
I1112 11:27:13.760581 29611 layer_factory.hpp:77] Creating layer fc_class
I1112 11:27:13.760586 29611 net.cpp:100] Creating Layer fc_class
I1112 11:27:13.760588 29611 net.cpp:434] fc_class <- conv_last
I1112 11:27:13.760604 29611 net.cpp:408] fc_class -> fc_class
I1112 11:27:13.760715 29611 net.cpp:150] Setting up fc_class
I1112 11:27:13.760717 29611 net.cpp:157] Top shape: 100 4 (400)
I1112 11:27:13.760720 29611 net.cpp:165] Memory required for data: 43126000
I1112 11:27:13.760725 29611 layer_factory.hpp:77] Creating layer fc_class_fc_class_0_split
I1112 11:27:13.760727 29611 net.cpp:100] Creating Layer fc_class_fc_class_0_split
I1112 11:27:13.760730 29611 net.cpp:434] fc_class_fc_class_0_split <- fc_class
I1112 11:27:13.760745 29611 net.cpp:408] fc_class_fc_class_0_split -> fc_class_fc_class_0_split_0
I1112 11:27:13.760748 29611 net.cpp:408] fc_class_fc_class_0_split -> fc_class_fc_class_0_split_1
I1112 11:27:13.760798 29611 net.cpp:150] Setting up fc_class_fc_class_0_split
I1112 11:27:13.760802 29611 net.cpp:157] Top shape: 100 4 (400)
I1112 11:27:13.760804 29611 net.cpp:157] Top shape: 100 4 (400)
I1112 11:27:13.760805 29611 net.cpp:165] Memory required for data: 43129200
I1112 11:27:13.760807 29611 layer_factory.hpp:77] Creating layer accuracy_class
I1112 11:27:13.760810 29611 net.cpp:100] Creating Layer accuracy_class
I1112 11:27:13.760812 29611 net.cpp:434] accuracy_class <- fc_class_fc_class_0_split_0
I1112 11:27:13.760814 29611 net.cpp:434] accuracy_class <- label_data_1_split_0
…
I1112 11:27:13.761184 29611 solver.cpp:181] Creating test net (#0) specified by test_net file: dvia_test.prototxt
I1112 11:27:13.761313 29611 net.cpp:58] Initializing net from parameters: 
state {
  phase: TEST
}
layer {
  name: "data"
  type: "Data"
  top: "data"
  top: "label"
  transform_param {
    scale: 0.00390625
    mirror: true
    mean_file: "/home/maheriya/Projects/IMAGES/dvia/png.32x32/data/dvia_32x32/val_mean.binaryproto"
  }
  data_param {
    source: "/home/maheriya/Projects/IMAGES/dvia/png.32x32/data/dvia_32x32/val_lmdb"
    batch_size: 120
    backend: LMDB
  }
}
layer {
  name: "conv1"
  type: "Convolution"
  bottom: "data"
  top: "conv1"
  param {
    lr_mult: 0.2
    decay_mult: 0.2
  }
  param {
    lr_mult: 0.4
    decay_mult: 0
  }
  convolution_param {
    num_output: 64
    kernel_size: 5
    stride: 1
    weight_filler {
      type: "xavier"
    }
  }
}
layer {
  name: "pool1"
  type: "Pooling"
  bottom: "conv1"
  top: "pool1"
  pooling_param {
    pool: MAX
    kernel_size: 2
    stride: 2
  }
}
layer {
  name: "relu1b"
  type: "ReLU"
  bottom: "pool1"
  top: "pool1"
}
layer {
  name: "conv2"
  type: "Convolution"
  bottom: "pool1"
  top: "conv2"
  param {
    lr_mult: 0.2
    decay_mult: 0.2
  }
  param {
    lr_mult: 0.4
    decay_mult: 0
  }
  convolution_param {
    num_output: 100
    kernel_size: 3
    stride: 1
    weight_filler {
      type: "xavier"
    }
  }
}
layer {
  name: "pool2"
  type: "Pooling"
  bottom: "conv2"
  top: "pool2"
  pooling_param {
    pool: MAX
    kernel_size: 2
    stride: 2
  }
}
layer {
  name: "relu2"
  type: "ReLU"
  bottom: "pool2"
  top: "pool2"
}
layer {
  name: "conv3"
  type: "Convolution"
  bottom: "pool2"
  top: "conv3"
  param {
    lr_mult: 1
    decay_mult: 1
  }
  param {
    lr_mult: 2
    decay_mult: 0
  }
  convolution_param {
    num_output: 200
    kernel_size: 3
    stride: 1
    weight_filler {
      type: "xavier"
    }
  }
}
layer {
  name: "pool3"
  type: "Pooling"
  bottom: "conv3"
  top: "pool3"
  pooling_param {
    pool: MAX
    kernel_size: 2
    stride: 2
  }
}
layer {
  name: "relu3"
  type: "ReLU"
  bottom: "pool3"
  top: "pool3"
}
layer {
  name: "conv_last"
  type: "Convolution"
  bottom: "pool3"
  top: "conv_last"
  param {
    lr_mult: 1
    decay_mult: 1
  }
  param {
    lr_mult: 2
    decay_mult: 0
  }
  convolution_param {
    num_output: 384
    kernel_size: 1
    stride: 1
    weight_filler {
      type: "xavier"
    }
  }
}
layer {
  name: "relu_last"
  type: "ReLU"
  bottom: "conv_last"
  top: "conv_last"
}
layer {
  name: "fc_class"
  type: "InnerProduct"
  bottom: "conv_last"
  top: "fc_class"
  param {
    lr_mult: 1
    decay_mult: 1
  }
  param {
    lr_mult: 2
    decay_mult: 0
  }
  inner_product_param {
    num_output: 4
    weight_filler {
      type: "xavier"
    }
  }
}
layer {
  name: "accuracy_class"
  type: "Accuracy"
  bottom: "fc_class"
  bottom: "label"
  top: "accuracy_class"
}
layer {
  name: "loss_class"
  type: "SoftmaxWithLoss"
  bottom: "fc_class"
  bottom: "label"
  top: "loss_class"
}
I1112 11:27:13.761361 29611 layer_factory.hpp:77] Creating layer data
I1112 11:27:13.761479 29611 net.cpp:100] Creating Layer data
I1112 11:27:13.761497 29611 net.cpp:408] data -> data
I1112 11:27:13.761502 29611 net.cpp:408] data -> label
I1112 11:27:13.761519 29611 data_transformer.cpp:25] Loading mean file from: /home/maheriya/Projects/IMAGES/dvia/png.32x32/data/dvia_32x32/val_mean.binaryproto
I1112 11:27:13.762233 29649 db_lmdb.cpp:35] Opened lmdb /home/maheriya/Projects/IMAGES/dvia/png.32x32/data/dvia_32x32/val_lmdb
I1112 11:27:13.762428 29611 data_layer.cpp:41] output data size: 120,3,32,32
I1112 11:27:13.765120 29611 net.cpp:150] Setting up data
I1112 11:27:13.765133 29611 net.cpp:157] Top shape: 120 3 32 32 (368640)
I1112 11:27:13.765161 29611 net.cpp:157] Top shape: 120 (120)
I1112 11:27:13.765164 29611 net.cpp:165] Memory required for data: 1475040
I1112 11:27:13.765168 29611 layer_factory.hpp:77] Creating layer label_data_1_split
I1112 11:27:13.765182 29611 net.cpp:100] Creating Layer label_data_1_split
I1112 11:27:13.765184 29611 net.cpp:434] label_data_1_split <- label
I1112 11:27:13.765207 29611 net.cpp:408] label_data_1_split -> label_data_1_split_0
I1112 11:27:13.765213 29611 net.cpp:408] label_data_1_split -> label_data_1_split_1
I1112 11:27:13.765408 29611 net.cpp:150] Setting up label_data_1_split
I1112 11:27:13.765420 29611 net.cpp:157] Top shape: 120 (120)
I1112 11:27:13.765435 29611 net.cpp:157] Top shape: 120 (120)
I1112 11:27:13.765442 29611 net.cpp:165] Memory required for data: 1476000
I1112 11:27:13.765450 29611 layer_factory.hpp:77] Creating layer conv1
I1112 11:27:13.765460 29611 net.cpp:100] Creating Layer conv1
I1112 11:27:13.765467 29611 net.cpp:434] conv1 <- data
I1112 11:27:13.765473 29611 net.cpp:408] conv1 -> conv1
I1112 11:27:13.765672 29611 net.cpp:150] Setting up conv1
I1112 11:27:13.765678 29611 net.cpp:157] Top shape: 120 64 28 28 (6021120)
I1112 11:27:13.765679 29611 net.cpp:165] Memory required for data: 25560480
I1112 11:27:13.765687 29611 layer_factory.hpp:77] Creating layer pool1
I1112 11:27:13.765699 29611 net.cpp:100] Creating Layer pool1
I1112 11:27:13.765702 29611 net.cpp:434] pool1 <- conv1
I1112 11:27:13.765707 29611 net.cpp:408] pool1 -> pool1
I1112 11:27:13.765733 29611 net.cpp:150] Setting up pool1
I1112 11:27:13.765738 29611 net.cpp:157] Top shape: 120 64 14 14 (1505280)
I1112 11:27:13.765739 29611 net.cpp:165] Memory required for data: 31581600
I1112 11:27:13.765740 29611 layer_factory.hpp:77] Creating layer relu1b
I1112 11:27:13.765745 29611 net.cpp:100] Creating Layer relu1b
I1112 11:27:13.765754 29611 net.cpp:434] relu1b <- pool1
I1112 11:27:13.765759 29611 net.cpp:395] relu1b -> pool1 (in-place)
I1112 11:27:13.765763 29611 net.cpp:150] Setting up relu1b
I1112 11:27:13.765771 29611 net.cpp:157] Top shape: 120 64 14 14 (1505280)
I1112 11:27:13.765777 29611 net.cpp:165] Memory required for data: 37602720
I1112 11:27:13.765784 29611 layer_factory.hpp:77] Creating layer conv2
I1112 11:27:13.765794 29611 net.cpp:100] Creating Layer conv2
I1112 11:27:13.765796 29611 net.cpp:434] conv2 <- pool1
I1112 11:27:13.765801 29611 net.cpp:408] conv2 -> conv2
I1112 11:27:13.766396 29611 net.cpp:150] Setting up conv2
I1112 11:27:13.766400 29611 net.cpp:157] Top shape: 120 100 12 12 (1728000)
I1112 11:27:13.766402 29611 net.cpp:165] Memory required for data: 44514720
I1112 11:27:13.766407 29611 layer_factory.hpp:77] Creating layer pool2
I1112 11:27:13.766412 29611 net.cpp:100] Creating Layer pool2
I1112 11:27:13.766414 29611 net.cpp:434] pool2 <- conv2
I1112 11:27:13.766417 29611 net.cpp:408] pool2 -> pool2
I1112 11:27:13.766464 29611 net.cpp:150] Setting up pool2
I1112 11:27:13.766469 29611 net.cpp:157] Top shape: 120 100 6 6 (432000)
I1112 11:27:13.766470 29611 net.cpp:165] Memory required for data: 46242720
I1112 11:27:13.766472 29611 layer_factory.hpp:77] Creating layer relu2
I1112 11:27:13.766475 29611 net.cpp:100] Creating Layer relu2
I1112 11:27:13.766477 29611 net.cpp:434] relu2 <- pool2
I1112 11:27:13.766481 29611 net.cpp:395] relu2 -> pool2 (in-place)
I1112 11:27:13.766491 29611 net.cpp:150] Setting up relu2
I1112 11:27:13.766500 29611 net.cpp:157] Top shape: 120 100 6 6 (432000)
I1112 11:27:13.766507 29611 net.cpp:165] Memory required for data: 47970720
I1112 11:27:13.766513 29611 layer_factory.hpp:77] Creating layer conv3
I1112 11:27:13.766525 29611 net.cpp:100] Creating Layer conv3
I1112 11:27:13.766526 29611 net.cpp:434] conv3 <- pool2
I1112 11:27:13.766531 29611 net.cpp:408] conv3 -> conv3
I1112 11:27:13.768208 29611 net.cpp:150] Setting up conv3
I1112 11:27:13.768215 29611 net.cpp:157] Top shape: 120 200 4 4 (384000)
I1112 11:27:13.768218 29611 net.cpp:165] Memory required for data: 49506720
I1112 11:27:13.768224 29611 layer_factory.hpp:77] Creating layer pool3
I1112 11:27:13.768239 29611 net.cpp:100] Creating Layer pool3
I1112 11:27:13.768247 29611 net.cpp:434] pool3 <- conv3
I1112 11:27:13.768255 29611 net.cpp:408] pool3 -> pool3
I1112 11:27:13.768291 29611 net.cpp:150] Setting up pool3
I1112 11:27:13.768296 29611 net.cpp:157] Top shape: 120 200 2 2 (96000)
I1112 11:27:13.768296 29611 net.cpp:165] Memory required for data: 49890720
I1112 11:27:13.768298 29611 layer_factory.hpp:77] Creating layer relu3
I1112 11:27:13.768302 29611 net.cpp:100] Creating Layer relu3
I1112 11:27:13.768311 29611 net.cpp:434] relu3 <- pool3
I1112 11:27:13.768316 29611 net.cpp:395] relu3 -> pool3 (in-place)
I1112 11:27:13.768319 29611 net.cpp:150] Setting up relu3
I1112 11:27:13.768327 29611 net.cpp:157] Top shape: 120 200 2 2 (96000)
I1112 11:27:13.768333 29611 net.cpp:165] Memory required for data: 50274720
I1112 11:27:13.768340 29611 layer_factory.hpp:77] Creating layer conv_last
I1112 11:27:13.768350 29611 net.cpp:100] Creating Layer conv_last
I1112 11:27:13.768357 29611 net.cpp:434] conv_last <- pool3
I1112 11:27:13.768367 29611 net.cpp:408] conv_last -> conv_last
I1112 11:27:13.769057 29611 net.cpp:150] Setting up conv_last
I1112 11:27:13.769062 29611 net.cpp:157] Top shape: 120 384 2 2 (184320)
I1112 11:27:13.769064 29611 net.cpp:165] Memory required for data: 51012000
I1112 11:27:13.769068 29611 layer_factory.hpp:77] Creating layer relu_last
I1112 11:27:13.769079 29611 net.cpp:100] Creating Layer relu_last
I1112 11:27:13.769085 29611 net.cpp:434] relu_last <- conv_last
I1112 11:27:13.769093 29611 net.cpp:395] relu_last -> conv_last (in-place)
I1112 11:27:13.769100 29611 net.cpp:150] Setting up relu_last
I1112 11:27:13.769106 29611 net.cpp:157] Top shape: 120 384 2 2 (184320)
I1112 11:27:13.769111 29611 net.cpp:165] Memory required for data: 51749280
I1112 11:27:13.769117 29611 layer_factory.hpp:77] Creating layer fc_class
I1112 11:27:13.769126 29611 net.cpp:100] Creating Layer fc_class
I1112 11:27:13.769132 29611 net.cpp:434] fc_class <- conv_last
I1112 11:27:13.769140 29611 net.cpp:408] fc_class -> fc_class
I1112 11:27:13.769255 29611 net.cpp:150] Setting up fc_class
I1112 11:27:13.769264 29611 net.cpp:157] Top shape: 120 4 (480)
I1112 11:27:13.769270 29611 net.cpp:165] Memory required for data: 51751200
I1112 11:27:13.769280 29611 layer_factory.hpp:77] Creating layer fc_class_fc_class_0_split
I1112 11:27:13.769289 29611 net.cpp:100] Creating Layer fc_class_fc_class_0_split
I1112 11:27:13.769300 29611 net.cpp:434] fc_class_fc_class_0_split <- fc_class
I1112 11:27:13.769309 29611 net.cpp:408] fc_class_fc_class_0_split -> fc_class_fc_class_0_split_0
I1112 11:27:13.769317 29611 net.cpp:408] fc_class_fc_class_0_split -> fc_class_fc_class_0_split_1
I1112 11:27:13.769347 29611 net.cpp:150] Setting up fc_class_fc_class_0_split
I1112 11:27:13.769356 29611 net.cpp:157] Top shape: 120 4 (480)
I1112 11:27:13.769362 29611 net.cpp:157] Top shape: 120 4 (480)
I1112 11:27:13.769367 29611 net.cpp:165] Memory required for data: 51755040
I1112 11:27:13.769372 29611 layer_factory.hpp:77] Creating layer accuracy_class
I1112 11:27:13.769381 29611 net.cpp:100] Creating Layer accuracy_class
I1112 11:27:13.769387 29611 net.cpp:434] accuracy_class <- fc_class_fc_class_0_split_0
I1112 11:27:13.769393 29611 net.cpp:434] accuracy_class <- label_data_1_split_0
…
I1112 11:27:14.008229 29653 solver.cpp:81] Creating training net from train_net file: dvia_pretrain.prototxt
I1112 11:27:14.008550 29653 net.cpp:58] Initializing net from parameters: 
state {
  phase: TRAIN
  level: 0
  stage: ""
}
layer {
  name: "data"
  type: "Data"
  top: "data"
  top: "label_coarse"
  transform_param {
    scale: 0.00390625
    mirror: true
    mean_file: "/home/maheriya/Projects/IMAGES/dvia/cifar_png.32x32/data/cifar_32x32/trn_mean.binaryproto"
  }
  data_param {
    source: "/home/maheriya/Projects/IMAGES/dvia/cifar_png.32x32/data/cifar_32x32/trn_lmdb"
    batch_size: 100
    backend: LMDB
  }
}
layer {
  name: "conv1"
  type: "Convolution"
  bottom: "data"
  top: "conv1"
  param {
    lr_mult: 1
    decay_mult: 1
  }
  param {
    lr_mult: 2
    decay_mult: 0
  }
  convolution_param {
    num_output: 64
    kernel_size: 5
    stride: 1
    weight_filler {
      type: "xavier"
    }
  }
}
layer {
  name: "pool1"
  type: "Pooling"
  bottom: "conv1"
  top: "pool1"
  pooling_param {
    pool: MAX
    kernel_size: 2
    stride: 2
  }
}
layer {
  name: "relu1b"
  type: "ReLU"
  bottom: "pool1"
  top: "pool1"
}
layer {
  name: "conv2"
  type: "Convolution"
  bottom: "pool1"
  top: "conv2"
  param {
    lr_mult: 1
    decay_mult: 1
  }
  param {
    lr_mult: 2
    decay_mult: 0
  }
  convolution_param {
    num_output: 100
    kernel_size: 3
    stride: 1
    weight_filler {
      type: "xavier"
    }
  }
}
layer {
  name: "pool2"
  type: "Pooling"
  bottom: "conv2"
  top: "pool2"
  pooling_param {
    pool: MAX
    kernel_size: 2
    stride: 2
  }
}
layer {
  name: "relu2"
  type: "ReLU"
  bottom: "pool2"
  top: "pool2"
}
layer {
  name: "conv3"
  type: "Convolution"
  bottom: "pool2"
  top: "conv3"
  param {
    lr_mult: 1
    decay_mult: 1
  }
  param {
    lr_mult: 2
    decay_mult: 0
  }
  convolution_param {
    num_output: 200
    kernel_size: 3
    stride: 1
    weight_filler {
      type: "xavier"
    }
  }
}
layer {
  name: "pool3"
  type: "Pooling"
  bottom: "conv3"
  top: "pool3"
  pooling_param {
    pool: MAX
    kernel_size: 2
    stride: 2
  }
}
layer {
  name: "relu3"
  type: "ReLU"
  bottom: "pool3"
  top: "pool3"
}
layer {
  name: "conv_last"
  type: "Convolution"
  bottom: "pool3"
  top: "conv_last"
  param {
    lr_mult: 1
    decay_mult: 1
  }
  param {
    lr_mult: 2
    decay_mult: 0
  }
  convolution_param {
    num_output: 384
    kernel_size: 1
    stride: 1
    weight_filler {
      type: "xavier"
    }
  }
}
layer {
  name: "relu_last"
  type: "ReLU"
  bottom: "conv_last"
  top: "conv_last"
}
layer {
  name: "fc_coarse"
  type: "InnerProduct"
  bottom: "conv_last"
  top: "fc_coarse"
  param {
    lr_mult: 1
    decay_mult: 1
  }
  param {
    lr_mult: 2
    decay_mult: 0
  }
  inner_product_param {
    num_output: 20
    weight_filler {
      type: "xavier"
    }
  }
}
layer {
  name: "accuracy_coarse"
  type: "Accuracy"
  bottom: "fc_coarse"
  bottom: "label_coarse"
  top: "accuracy_coarse"
}
layer {
  name: "loss_coarse"
  type: "SoftmaxWithLoss"
  bottom: "fc_coarse"
  bottom: "label_coarse"
  top: "loss_coarse"
}
I1112 11:27:14.008657 29653 layer_factory.hpp:77] Creating layer data
I1112 11:27:14.009133 29653 net.cpp:100] Creating Layer data
I1112 11:27:14.009140 29653 net.cpp:408] data -> data
I1112 11:27:14.009155 29653 net.cpp:408] data -> label_coarse
I1112 11:27:14.009162 29653 data_transformer.cpp:25] Loading mean file from: /home/maheriya/Projects/IMAGES/dvia/cifar_png.32x32/data/cifar_32x32/trn_mean.binaryproto
I1112 11:27:14.009841 29658 db_lmdb.cpp:35] Opened lmdb /home/maheriya/Projects/IMAGES/dvia/cifar_png.32x32/data/cifar_32x32/trn_lmdb
I1112 11:27:14.018868 29653 data_layer.cpp:41] output data size: 100,3,32,32
I1112 11:27:14.021082 29653 net.cpp:150] Setting up data
I1112 11:27:14.021101 29653 net.cpp:157] Top shape: 100 3 32 32 (307200)
I1112 11:27:14.021105 29653 net.cpp:157] Top shape: 100 (100)
I1112 11:27:14.021106 29653 net.cpp:165] Memory required for data: 1229200
I1112 11:27:14.021144 29653 layer_factory.hpp:77] Creating layer label_coarse_data_1_split
I1112 11:27:14.021153 29653 net.cpp:100] Creating Layer label_coarse_data_1_split
I1112 11:27:14.021157 29653 net.cpp:434] label_coarse_data_1_split <- label_coarse
I1112 11:27:14.021170 29653 net.cpp:408] label_coarse_data_1_split -> label_coarse_data_1_split_0
I1112 11:27:14.021179 29653 net.cpp:408] label_coarse_data_1_split -> label_coarse_data_1_split_1
I1112 11:27:14.021222 29653 net.cpp:150] Setting up label_coarse_data_1_split
I1112 11:27:14.021226 29653 net.cpp:157] Top shape: 100 (100)
I1112 11:27:14.021229 29653 net.cpp:157] Top shape: 100 (100)
I1112 11:27:14.021245 29653 net.cpp:165] Memory required for data: 1230000
I1112 11:27:14.021246 29653 layer_factory.hpp:77] Creating layer conv1
I1112 11:27:14.021275 29653 net.cpp:100] Creating Layer conv1
I1112 11:27:14.021277 29653 net.cpp:434] conv1 <- data
I1112 11:27:14.021281 29653 net.cpp:408] conv1 -> conv1
I1112 11:27:14.022171 29653 net.cpp:150] Setting up conv1
I1112 11:27:14.022181 29653 net.cpp:157] Top shape: 100 64 28 28 (5017600)
I1112 11:27:14.022181 29653 net.cpp:165] Memory required for data: 21300400
I1112 11:27:14.022220 29653 layer_factory.hpp:77] Creating layer pool1
I1112 11:27:14.022228 29653 net.cpp:100] Creating Layer pool1
I1112 11:27:14.022231 29653 net.cpp:434] pool1 <- conv1
I1112 11:27:14.022234 29653 net.cpp:408] pool1 -> pool1
I1112 11:27:14.022308 29653 net.cpp:150] Setting up pool1
I1112 11:27:14.022312 29653 net.cpp:157] Top shape: 100 64 14 14 (1254400)
I1112 11:27:14.022315 29653 net.cpp:165] Memory required for data: 26318000
I1112 11:27:14.022316 29653 layer_factory.hpp:77] Creating layer relu1b
I1112 11:27:14.022320 29653 net.cpp:100] Creating Layer relu1b
I1112 11:27:14.022322 29653 net.cpp:434] relu1b <- pool1
I1112 11:27:14.022348 29653 net.cpp:395] relu1b -> pool1 (in-place)
I1112 11:27:14.022351 29653 net.cpp:150] Setting up relu1b
I1112 11:27:14.022354 29653 net.cpp:157] Top shape: 100 64 14 14 (1254400)
I1112 11:27:14.022356 29653 net.cpp:165] Memory required for data: 31335600
I1112 11:27:14.022357 29653 layer_factory.hpp:77] Creating layer conv2
I1112 11:27:14.022362 29653 net.cpp:100] Creating Layer conv2
I1112 11:27:14.022364 29653 net.cpp:434] conv2 <- pool1
I1112 11:27:14.022383 29653 net.cpp:408] conv2 -> conv2
I1112 11:27:14.023362 29653 net.cpp:150] Setting up conv2
I1112 11:27:14.023367 29653 net.cpp:157] Top shape: 100 100 12 12 (1440000)
I1112 11:27:14.023370 29653 net.cpp:165] Memory required for data: 37095600
I1112 11:27:14.023375 29653 layer_factory.hpp:77] Creating layer pool2
I1112 11:27:14.023380 29653 net.cpp:100] Creating Layer pool2
I1112 11:27:14.023383 29653 net.cpp:434] pool2 <- conv2
I1112 11:27:14.023401 29653 net.cpp:408] pool2 -> pool2
I1112 11:27:14.023448 29653 net.cpp:150] Setting up pool2
I1112 11:27:14.023452 29653 net.cpp:157] Top shape: 100 100 6 6 (360000)
I1112 11:27:14.023453 29653 net.cpp:165] Memory required for data: 38535600
I1112 11:27:14.023469 29653 layer_factory.hpp:77] Creating layer relu2
I1112 11:27:14.023474 29653 net.cpp:100] Creating Layer relu2
I1112 11:27:14.023475 29653 net.cpp:434] relu2 <- pool2
I1112 11:27:14.023478 29653 net.cpp:395] relu2 -> pool2 (in-place)
I1112 11:27:14.023481 29653 net.cpp:150] Setting up relu2
I1112 11:27:14.023485 29653 net.cpp:157] Top shape: 100 100 6 6 (360000)
I1112 11:27:14.023486 29653 net.cpp:165] Memory required for data: 39975600
I1112 11:27:14.023488 29653 layer_factory.hpp:77] Creating layer conv3
I1112 11:27:14.023507 29653 net.cpp:100] Creating Layer conv3
I1112 11:27:14.023510 29653 net.cpp:434] conv3 <- pool2
I1112 11:27:14.023528 29653 net.cpp:408] conv3 -> conv3
I1112 11:27:14.025002 29653 net.cpp:150] Setting up conv3
I1112 11:27:14.025009 29653 net.cpp:157] Top shape: 100 200 4 4 (320000)
I1112 11:27:14.025012 29653 net.cpp:165] Memory required for data: 41255600
I1112 11:27:14.025017 29653 layer_factory.hpp:77] Creating layer pool3
I1112 11:27:14.025037 29653 net.cpp:100] Creating Layer pool3
I1112 11:27:14.025038 29653 net.cpp:434] pool3 <- conv3
I1112 11:27:14.025041 29653 net.cpp:408] pool3 -> pool3
I1112 11:27:14.025079 29653 net.cpp:150] Setting up pool3
I1112 11:27:14.025084 29653 net.cpp:157] Top shape: 100 200 2 2 (80000)
I1112 11:27:14.025085 29653 net.cpp:165] Memory required for data: 41575600
I1112 11:27:14.025087 29653 layer_factory.hpp:77] Creating layer relu3
I1112 11:27:14.025090 29653 net.cpp:100] Creating Layer relu3
I1112 11:27:14.025092 29653 net.cpp:434] relu3 <- pool3
I1112 11:27:14.025095 29653 net.cpp:395] relu3 -> pool3 (in-place)
I1112 11:27:14.025099 29653 net.cpp:150] Setting up relu3
I1112 11:27:14.025104 29653 net.cpp:157] Top shape: 100 200 2 2 (80000)
I1112 11:27:14.025104 29653 net.cpp:165] Memory required for data: 41895600
I1112 11:27:14.025106 29653 layer_factory.hpp:77] Creating layer conv_last
I1112 11:27:14.025112 29653 net.cpp:100] Creating Layer conv_last
I1112 11:27:14.025127 29653 net.cpp:434] conv_last <- pool3
I1112 11:27:14.025130 29653 net.cpp:408] conv_last -> conv_last
I1112 11:27:14.025780 29653 net.cpp:150] Setting up conv_last
I1112 11:27:14.025785 29653 net.cpp:157] Top shape: 100 384 2 2 (153600)
I1112 11:27:14.025787 29653 net.cpp:165] Memory required for data: 42510000
I1112 11:27:14.025790 29653 layer_factory.hpp:77] Creating layer relu_last
I1112 11:27:14.025794 29653 net.cpp:100] Creating Layer relu_last
I1112 11:27:14.025795 29653 net.cpp:434] relu_last <- conv_last
I1112 11:27:14.025799 29653 net.cpp:395] relu_last -> conv_last (in-place)
I1112 11:27:14.025816 29653 net.cpp:150] Setting up relu_last
I1112 11:27:14.025818 29653 net.cpp:157] Top shape: 100 384 2 2 (153600)
I1112 11:27:14.025820 29653 net.cpp:165] Memory required for data: 43124400
I1112 11:27:14.025822 29653 layer_factory.hpp:77] Creating layer fc_coarse
I1112 11:27:14.025840 29653 net.cpp:100] Creating Layer fc_coarse
I1112 11:27:14.025840 29653 net.cpp:434] fc_coarse <- conv_last
I1112 11:27:14.025845 29653 net.cpp:408] fc_coarse -> fc_coarse
I1112 11:27:14.026144 29653 net.cpp:150] Setting up fc_coarse
I1112 11:27:14.026147 29653 net.cpp:157] Top shape: 100 20 (2000)
I1112 11:27:14.026149 29653 net.cpp:165] Memory required for data: 43132400
I1112 11:27:14.026154 29653 layer_factory.hpp:77] Creating layer fc_coarse_fc_coarse_0_split
I1112 11:27:14.026157 29653 net.cpp:100] Creating Layer fc_coarse_fc_coarse_0_split
I1112 11:27:14.026173 29653 net.cpp:434] fc_coarse_fc_coarse_0_split <- fc_coarse
I1112 11:27:14.026177 29653 net.cpp:408] fc_coarse_fc_coarse_0_split -> fc_coarse_fc_coarse_0_split_0
I1112 11:27:14.026182 29653 net.cpp:408] fc_coarse_fc_coarse_0_split -> fc_coarse_fc_coarse_0_split_1
I1112 11:27:14.026203 29653 net.cpp:150] Setting up fc_coarse_fc_coarse_0_split
I1112 11:27:14.026219 29653 net.cpp:157] Top shape: 100 20 (2000)
I1112 11:27:14.026221 29653 net.cpp:157] Top shape: 100 20 (2000)
I1112 11:27:14.026223 29653 net.cpp:165] Memory required for data: 43148400
I1112 11:27:14.026226 29653 layer_factory.hpp:77] Creating layer accuracy_coarse
I1112 11:27:14.026228 29653 net.cpp:100] Creating Layer accuracy_coarse
I1112 11:27:14.026231 29653 net.cpp:434] accuracy_coarse <- fc_coarse_fc_coarse_0_split_0
I1112 11:27:14.026233 29653 net.cpp:434] accuracy_coarse <- label_coarse_data_1_split_0
…
I1112 11:27:14.026674 29653 solver.cpp:181] Creating test net (#0) specified by test_net file: dvia_pretest.prototxt
I1112 11:27:14.026777 29653 net.cpp:58] Initializing net from parameters: 
state {
  phase: TEST
}
layer {
  name: "data"
  type: "Data"
  top: "data"
  top: "label_coarse"
  transform_param {
    scale: 0.00390625
    mirror: false
    mean_file: "/home/maheriya/Projects/IMAGES/dvia/cifar_png.32x32/data/cifar_32x32/val_mean.binaryproto"
  }
  data_param {
    source: "/home/maheriya/Projects/IMAGES/dvia/cifar_png.32x32/data/cifar_32x32/val_lmdb"
    batch_size: 120
    backend: LMDB
  }
}
layer {
  name: "conv1"
  type: "Convolution"
  bottom: "data"
  top: "conv1"
  param {
    lr_mult: 1
    decay_mult: 1
  }
  param {
    lr_mult: 2
    decay_mult: 0
  }
  convolution_param {
    num_output: 64
    kernel_size: 5
    stride: 1
    weight_filler {
      type: "xavier"
    }
  }
}
layer {
  name: "pool1"
  type: "Pooling"
  bottom: "conv1"
  top: "pool1"
  pooling_param {
    pool: MAX
    kernel_size: 2
    stride: 2
  }
}
layer {
  name: "relu1b"
  type: "ReLU"
  bottom: "pool1"
  top: "pool1"
}
layer {
  name: "conv2"
  type: "Convolution"
  bottom: "pool1"
  top: "conv2"
  param {
    lr_mult: 1
    decay_mult: 1
  }
  param {
    lr_mult: 2
    decay_mult: 0
  }
  convolution_param {
    num_output: 100
    kernel_size: 3
    stride: 1
    weight_filler {
      type: "xavier"
    }
  }
}
layer {
  name: "pool2"
  type: "Pooling"
  bottom: "conv2"
  top: "pool2"
  pooling_param {
    pool: MAX
    kernel_size: 2
    stride: 2
  }
}
layer {
  name: "relu2"
  type: "ReLU"
  bottom: "pool2"
  top: "pool2"
}
layer {
  name: "conv3"
  type: "Convolution"
  bottom: "pool2"
  top: "conv3"
  param {
    lr_mult: 1
    decay_mult: 1
  }
  param {
    lr_mult: 2
    decay_mult: 0
  }
  convolution_param {
    num_output: 200
    kernel_size: 3
    stride: 1
    weight_filler {
      type: "xavier"
    }
  }
}
layer {
  name: "pool3"
  type: "Pooling"
  bottom: "conv3"
  top: "pool3"
  pooling_param {
    pool: MAX
    kernel_size: 2
    stride: 2
  }
}
layer {
  name: "relu3"
  type: "ReLU"
  bottom: "pool3"
  top: "pool3"
}
layer {
  name: "conv_last"
  type: "Convolution"
  bottom: "pool3"
  top: "conv_last"
  param {
    lr_mult: 1
    decay_mult: 1
  }
  param {
    lr_mult: 2
    decay_mult: 0
  }
  convolution_param {
    num_output: 384
    kernel_size: 1
    stride: 1
    weight_filler {
      type: "xavier"
    }
  }
}
layer {
  name: "relu_last"
  type: "ReLU"
  bottom: "conv_last"
  top: "conv_last"
}
layer {
  name: "fc_coarse"
  type: "InnerProduct"
  bottom: "conv_last"
  top: "fc_coarse"
  param {
    lr_mult: 1
    decay_mult: 1
  }
  param {
    lr_mult: 2
    decay_mult: 0
  }
  inner_product_param {
    num_output: 20
    weight_filler {
      type: "xavier"
    }
  }
}
layer {
  name: "accuracy_coarse"
  type: "Accuracy"
  bottom: "fc_coarse"
  bottom: "label_coarse"
  top: "accuracy_coarse"
}
layer {
  name: "loss_coarse"
  type: "SoftmaxWithLoss"
  bottom: "fc_coarse"
  bottom: "label_coarse"
  top: "loss_coarse"
}
I1112 11:27:14.026844 29653 layer_factory.hpp:77] Creating layer data
I1112 11:27:14.026933 29653 net.cpp:100] Creating Layer data
I1112 11:27:14.026952 29653 net.cpp:408] data -> data
I1112 11:27:14.026973 29653 net.cpp:408] data -> label_coarse
I1112 11:27:14.026989 29653 data_transformer.cpp:25] Loading mean file from: /home/maheriya/Projects/IMAGES/dvia/cifar_png.32x32/data/cifar_32x32/val_mean.binaryproto
I1112 11:27:14.027590 29660 db_lmdb.cpp:35] Opened lmdb /home/maheriya/Projects/IMAGES/dvia/cifar_png.32x32/data/cifar_32x32/val_lmdb
I1112 11:27:14.027729 29653 data_layer.cpp:41] output data size: 120,3,32,32
I1112 11:27:14.030340 29653 net.cpp:150] Setting up data
I1112 11:27:14.030355 29653 net.cpp:157] Top shape: 120 3 32 32 (368640)
I1112 11:27:14.030359 29653 net.cpp:157] Top shape: 120 (120)
I1112 11:27:14.030361 29653 net.cpp:165] Memory required for data: 1475040
I1112 11:27:14.030365 29653 layer_factory.hpp:77] Creating layer label_coarse_data_1_split
I1112 11:27:14.030375 29653 net.cpp:100] Creating Layer label_coarse_data_1_split
I1112 11:27:14.030403 29653 net.cpp:434] label_coarse_data_1_split <- label_coarse
I1112 11:27:14.030414 29653 net.cpp:408] label_coarse_data_1_split -> label_coarse_data_1_split_0
I1112 11:27:14.030426 29653 net.cpp:408] label_coarse_data_1_split -> label_coarse_data_1_split_1
I1112 11:27:14.030479 29653 net.cpp:150] Setting up label_coarse_data_1_split
I1112 11:27:14.030484 29653 net.cpp:157] Top shape: 120 (120)
I1112 11:27:14.030488 29653 net.cpp:157] Top shape: 120 (120)
I1112 11:27:14.030488 29653 net.cpp:165] Memory required for data: 1476000
I1112 11:27:14.030490 29653 layer_factory.hpp:77] Creating layer conv1
I1112 11:27:14.030513 29653 net.cpp:100] Creating Layer conv1
I1112 11:27:14.030521 29653 net.cpp:434] conv1 <- data
I1112 11:27:14.030529 29653 net.cpp:408] conv1 -> conv1
I1112 11:27:14.030724 29653 net.cpp:150] Setting up conv1
I1112 11:27:14.030730 29653 net.cpp:157] Top shape: 120 64 28 28 (6021120)
I1112 11:27:14.030731 29653 net.cpp:165] Memory required for data: 25560480
I1112 11:27:14.030738 29653 layer_factory.hpp:77] Creating layer pool1
I1112 11:27:14.030750 29653 net.cpp:100] Creating Layer pool1
I1112 11:27:14.030758 29653 net.cpp:434] pool1 <- conv1
I1112 11:27:14.030768 29653 net.cpp:408] pool1 -> pool1
I1112 11:27:14.030796 29653 net.cpp:150] Setting up pool1
I1112 11:27:14.030799 29653 net.cpp:157] Top shape: 120 64 14 14 (1505280)
I1112 11:27:14.030808 29653 net.cpp:165] Memory required for data: 31581600
I1112 11:27:14.030812 29653 layer_factory.hpp:77] Creating layer relu1b
I1112 11:27:14.030815 29653 net.cpp:100] Creating Layer relu1b
I1112 11:27:14.030823 29653 net.cpp:434] relu1b <- pool1
I1112 11:27:14.030828 29653 net.cpp:395] relu1b -> pool1 (in-place)
I1112 11:27:14.030833 29653 net.cpp:150] Setting up relu1b
I1112 11:27:14.030840 29653 net.cpp:157] Top shape: 120 64 14 14 (1505280)
I1112 11:27:14.030854 29653 net.cpp:165] Memory required for data: 37602720
I1112 11:27:14.030858 29653 layer_factory.hpp:77] Creating layer conv2
I1112 11:27:14.030864 29653 net.cpp:100] Creating Layer conv2
I1112 11:27:14.030872 29653 net.cpp:434] conv2 <- pool1
I1112 11:27:14.030877 29653 net.cpp:408] conv2 -> conv2
I1112 11:27:14.031414 29653 net.cpp:150] Setting up conv2
I1112 11:27:14.031419 29653 net.cpp:157] Top shape: 120 100 12 12 (1728000)
I1112 11:27:14.031420 29653 net.cpp:165] Memory required for data: 44514720
I1112 11:27:14.031426 29653 layer_factory.hpp:77] Creating layer pool2
I1112 11:27:14.031430 29653 net.cpp:100] Creating Layer pool2
I1112 11:27:14.031453 29653 net.cpp:434] pool2 <- conv2
I1112 11:27:14.031458 29653 net.cpp:408] pool2 -> pool2
I1112 11:27:14.031517 29653 net.cpp:150] Setting up pool2
I1112 11:27:14.031522 29653 net.cpp:157] Top shape: 120 100 6 6 (432000)
I1112 11:27:14.031538 29653 net.cpp:165] Memory required for data: 46242720
I1112 11:27:14.031540 29653 layer_factory.hpp:77] Creating layer relu2
I1112 11:27:14.031558 29653 net.cpp:100] Creating Layer relu2
I1112 11:27:14.031568 29653 net.cpp:434] relu2 <- pool2
I1112 11:27:14.031571 29653 net.cpp:395] relu2 -> pool2 (in-place)
I1112 11:27:14.031575 29653 net.cpp:150] Setting up relu2
I1112 11:27:14.031584 29653 net.cpp:157] Top shape: 120 100 6 6 (432000)
I1112 11:27:14.031600 29653 net.cpp:165] Memory required for data: 47970720
I1112 11:27:14.031604 29653 layer_factory.hpp:77] Creating layer conv3
I1112 11:27:14.031610 29653 net.cpp:100] Creating Layer conv3
I1112 11:27:14.031620 29653 net.cpp:434] conv3 <- pool2
I1112 11:27:14.031625 29653 net.cpp:408] conv3 -> conv3
I1112 11:27:14.033167 29653 net.cpp:150] Setting up conv3
I1112 11:27:14.033174 29653 net.cpp:157] Top shape: 120 200 4 4 (384000)
I1112 11:27:14.033176 29653 net.cpp:165] Memory required for data: 49506720
I1112 11:27:14.033182 29653 layer_factory.hpp:77] Creating layer pool3
I1112 11:27:14.033196 29653 net.cpp:100] Creating Layer pool3
I1112 11:27:14.033205 29653 net.cpp:434] pool3 <- conv3
I1112 11:27:14.033215 29653 net.cpp:408] pool3 -> pool3
I1112 11:27:14.033243 29653 net.cpp:150] Setting up pool3
I1112 11:27:14.033246 29653 net.cpp:157] Top shape: 120 200 2 2 (96000)
I1112 11:27:14.033248 29653 net.cpp:165] Memory required for data: 49890720
I1112 11:27:14.033251 29653 layer_factory.hpp:77] Creating layer relu3
I1112 11:27:14.033264 29653 net.cpp:100] Creating Layer relu3
I1112 11:27:14.033272 29653 net.cpp:434] relu3 <- pool3
I1112 11:27:14.033279 29653 net.cpp:395] relu3 -> pool3 (in-place)
I1112 11:27:14.033284 29653 net.cpp:150] Setting up relu3
I1112 11:27:14.033288 29653 net.cpp:157] Top shape: 120 200 2 2 (96000)
I1112 11:27:14.033295 29653 net.cpp:165] Memory required for data: 50274720
I1112 11:27:14.033301 29653 layer_factory.hpp:77] Creating layer conv_last
I1112 11:27:14.033325 29653 net.cpp:100] Creating Layer conv_last
I1112 11:27:14.033329 29653 net.cpp:434] conv_last <- pool3
I1112 11:27:14.033334 29653 net.cpp:408] conv_last -> conv_last
I1112 11:27:14.033947 29653 net.cpp:150] Setting up conv_last
I1112 11:27:14.033952 29653 net.cpp:157] Top shape: 120 384 2 2 (184320)
I1112 11:27:14.033954 29653 net.cpp:165] Memory required for data: 51012000
I1112 11:27:14.033958 29653 layer_factory.hpp:77] Creating layer relu_last
I1112 11:27:14.033972 29653 net.cpp:100] Creating Layer relu_last
I1112 11:27:14.033979 29653 net.cpp:434] relu_last <- conv_last
I1112 11:27:14.033984 29653 net.cpp:395] relu_last -> conv_last (in-place)
I1112 11:27:14.033988 29653 net.cpp:150] Setting up relu_last
I1112 11:27:14.033996 29653 net.cpp:157] Top shape: 120 384 2 2 (184320)
I1112 11:27:14.034003 29653 net.cpp:165] Memory required for data: 51749280
I1112 11:27:14.034010 29653 layer_factory.hpp:77] Creating layer fc_coarse
I1112 11:27:14.034023 29653 net.cpp:100] Creating Layer fc_coarse
I1112 11:27:14.034029 29653 net.cpp:434] fc_coarse <- conv_last
I1112 11:27:14.034037 29653 net.cpp:408] fc_coarse -> fc_coarse
I1112 11:27:14.034296 29653 net.cpp:150] Setting up fc_coarse
I1112 11:27:14.034315 29653 net.cpp:157] Top shape: 120 20 (2400)
I1112 11:27:14.034322 29653 net.cpp:165] Memory required for data: 51758880
I1112 11:27:14.034333 29653 layer_factory.hpp:77] Creating layer fc_coarse_fc_coarse_0_split
I1112 11:27:14.034343 29653 net.cpp:100] Creating Layer fc_coarse_fc_coarse_0_split
I1112 11:27:14.034350 29653 net.cpp:434] fc_coarse_fc_coarse_0_split <- fc_coarse
I1112 11:27:14.034358 29653 net.cpp:408] fc_coarse_fc_coarse_0_split -> fc_coarse_fc_coarse_0_split_0
I1112 11:27:14.034371 29653 net.cpp:408] fc_coarse_fc_coarse_0_split -> fc_coarse_fc_coarse_0_split_1
I1112 11:27:14.034402 29653 net.cpp:150] Setting up fc_coarse_fc_coarse_0_split
I1112 11:27:14.034411 29653 net.cpp:157] Top shape: 120 20 (2400)
I1112 11:27:14.034418 29653 net.cpp:157] Top shape: 120 20 (2400)
I1112 11:27:14.034425 29653 net.cpp:165] Memory required for data: 51778080
I1112 11:27:14.034431 29653 layer_factory.hpp:77] Creating layer accuracy_coarse
I1112 11:27:14.034440 29653 net.cpp:100] Creating Layer accuracy_coarse
I1112 11:27:14.034447 29653 net.cpp:434] accuracy_coarse <- fc_coarse_fc_coarse_0_split_0
I1112 11:27:14.034456 29653 net.cpp:434] accuracy_coarse <- label_coarse_data_1_split_0
…
